{"format": "graph-model", "generatedBy": "2.15.0", "convertedBy": "TensorFlow.js Converter v4.20.0", "signature": {"inputs": {"input_1": {"name": "input_1:0", "dtype": "DT_FLOAT", "tensorShape": {"dim": [{"size": "-1"}, {"size": "-1"}, {"size": "32"}]}}}, "outputs": {"dense_1": {"name": "Identity:0", "dtype": "DT_FLOAT", "tensorShape": {"dim": [{"size": "-1"}, {"size": "1"}]}}}}, "modelTopology": {"node": [{"name": "StatefulPartitionedCall/sequential/bidirectional_1/forward_lstm_1/PartitionedCall/TensorArrayV2_1/element_shape", "op": "Const", "attr": {"dtype": {"type": "DT_INT32"}, "value": {"tensor": {"dtype": "DT_INT32", "tensorShape": {"dim": [{"size": "2"}]}}}}}, {"name": "StatefulPartitionedCall/sequential/bidirectional_1/forward_lstm_1/PartitionedCall/TensorArrayV2_1/num_elements", "op": "Const", "attr": {"value": {"tensor": {"dtype": "DT_INT32", "tensorShape": {}}}, "dtype": {"type": "DT_INT32"}}}, {"name": "StatefulPartitionedCall/sequential/bidirectional_1/forward_lstm_1/zeros_1/packed/1", "op": "Const", "attr": {"dtype": {"type": "DT_INT32"}, "value": {"tensor": {"dtype": "DT_INT32", "tensorShape": {}}}}}, {"name": "StatefulPartitionedCall/sequential/bidirectional_1/forward_lstm_1/zeros_1/Const", "op": "Const", "attr": {"value": {"tensor": {"dtype": "DT_FLOAT", "tensorShape": {}}}, "dtype": {"type": "DT_FLOAT"}}}, {"name": "StatefulPartitionedCall/sequential/bidirectional_1/forward_lstm_1/PartitionedCall/TensorArrayUnstack/TensorListFromTensor/element_shape", "op": "Const", "attr": {"value": {"tensor": {"dtype": "DT_INT32", "tensorShape": {"dim": [{"size": "2"}]}}}, "dtype": {"type": "DT_INT32"}}}, {"name": "StatefulPartitionedCall/sequential/bidirectional_1/forward_lstm_1/Read/ReadVariableOp", "op": "Const", "attr": {"value": {"tensor": {"dtype": "DT_FLOAT", "tensorShape": {"dim": [{"size": "128"}, {"size": "512"}]}}}, "dtype": {"type": "DT_FLOAT"}}}, {"name": "StatefulPartitionedCall/sequential/bidirectional_1/forward_lstm_1/strided_slice/stack", "op": "Const", "attr": {"value": {"tensor": {"dtype": "DT_INT32", "tensorShape": {"dim": [{"size": "1"}]}}}, "dtype": {"type": "DT_INT32"}}}, {"name": "StatefulPartitionedCall/sequential/bidirectional_1/forward_lstm_1/strided_slice/stack_1", "op": "Const", "attr": {"dtype": {"type": "DT_INT32"}, "value": {"tensor": {"dtype": "DT_INT32", "tensorShape": {"dim": [{"size": "1"}]}}}}}, {"name": "StatefulPartitionedCall/sequential/bidirectional_1/forward_lstm_1/strided_slice/stack_2", "op": "Const", "attr": {"value": {"tensor": {"dtype": "DT_INT32", "tensorShape": {"dim": [{"size": "1"}]}}}, "dtype": {"type": "DT_INT32"}}}, {"name": "StatefulPartitionedCall/sequential/bidirectional_1/forward_lstm_1/zeros/packed/1", "op": "Const", "attr": {"value": {"tensor": {"dtype": "DT_INT32", "tensorShape": {}}}, "dtype": {"type": "DT_INT32"}}}, {"name": "StatefulPartitionedCall/sequential/bidirectional_1/forward_lstm_1/zeros/Const", "op": "Const", "attr": {"dtype": {"type": "DT_FLOAT"}, "value": {"tensor": {"dtype": "DT_FLOAT", "tensorShape": {}}}}}, {"name": "StatefulPartitionedCall/sequential/bidirectional_1/forward_lstm_1/Read_1/ReadVariableOp", "op": "Const", "attr": {"value": {"tensor": {"dtype": "DT_FLOAT", "tensorShape": {"dim": [{"size": "128"}, {"size": "512"}]}}}, "dtype": {"type": "DT_FLOAT"}}}, {"name": "StatefulPartitionedCall/sequential/bidirectional_1/forward_lstm_1/Read_2/ReadVariableOp", "op": "Const", "attr": {"value": {"tensor": {"dtype": "DT_FLOAT", "tensorShape": {"dim": [{"size": "512"}]}}}, "dtype": {"type": "DT_FLOAT"}}}, {"name": "StatefulPartitionedCall/sequential/bidirectional_1/forward_lstm_1/PartitionedCall/time", "op": "Const", "attr": {"value": {"tensor": {"dtype": "DT_INT32", "tensorShape": {}}}, "dtype": {"type": "DT_INT32"}}}, {"name": "StatefulPartitionedCall/sequential/bidirectional_1/forward_lstm_1/PartitionedCall/transpose/perm", "op": "Const", "attr": {"dtype": {"type": "DT_INT32"}, "value": {"tensor": {"dtype": "DT_INT32", "tensorShape": {"dim": [{"size": "3"}]}}}}}, {"name": "StatefulPartitionedCall/sequential/bidirectional_1/forward_lstm_1/PartitionedCall/strided_slice/stack", "op": "Const", "attr": {"value": {"tensor": {"dtype": "DT_INT32", "tensorShape": {"dim": [{"size": "1"}]}}}, "dtype": {"type": "DT_INT32"}}}, {"name": "StatefulPartitionedCall/sequential/bidirectional_1/forward_lstm_1/PartitionedCall/strided_slice/stack_1", "op": "Const", "attr": {"value": {"tensor": {"dtype": "DT_INT32", "tensorShape": {"dim": [{"size": "1"}]}}}, "dtype": {"type": "DT_INT32"}}}, {"name": "StatefulPartitionedCall/sequential/bidirectional_1/forward_lstm_1/PartitionedCall/strided_slice/stack_2", "op": "Const", "attr": {"value": {"tensor": {"dtype": "DT_INT32", "tensorShape": {"dim": [{"size": "1"}]}}}, "dtype": {"type": "DT_INT32"}}}, {"name": "StatefulPartitionedCall/sequential/bidirectional_1/forward_lstm_1/PartitionedCall/while/loop_counter", "op": "Const", "attr": {"value": {"tensor": {"dtype": "DT_INT32", "tensorShape": {}}}, "dtype": {"type": "DT_INT32"}}}, {"name": "StatefulPartitionedCall/sequential/bidirectional_1/forward_lstm_1/PartitionedCall/TensorArrayV2Stack/TensorListStack/element_shape", "op": "Const", "attr": {"dtype": {"type": "DT_INT32"}, "value": {"tensor": {"dtype": "DT_INT32", "tensorShape": {"dim": [{"size": "2"}]}}}}}, {"name": "StatefulPartitionedCall/sequential/bidirectional_1/forward_lstm_1/PartitionedCall/strided_slice_2/stack", "op": "Const", "attr": {"value": {"tensor": {"dtype": "DT_INT32", "tensorShape": {"dim": [{"size": "1"}]}}}, "dtype": {"type": "DT_INT32"}}}, {"name": "StatefulPartitionedCall/sequential/bidirectional_1/forward_lstm_1/PartitionedCall/strided_slice_2/stack_1", "op": "Const", "attr": {"value": {"tensor": {"dtype": "DT_INT32", "tensorShape": {"dim": [{"size": "1"}]}}}, "dtype": {"type": "DT_INT32"}}}, {"name": "StatefulPartitionedCall/sequential/bidirectional_1/forward_lstm_1/PartitionedCall/strided_slice_2/stack_2", "op": "Const", "attr": {"value": {"tensor": {"dtype": "DT_INT32", "tensorShape": {"dim": [{"size": "1"}]}}}, "dtype": {"type": "DT_INT32"}}}, {"name": "StatefulPartitionedCall/sequential/bidirectional_1/backward_lstm_1/PartitionedCall/TensorArrayV2_1/element_shape", "op": "Const", "attr": {"value": {"tensor": {"dtype": "DT_INT32", "tensorShape": {"dim": [{"size": "2"}]}}}, "dtype": {"type": "DT_INT32"}}}, {"name": "StatefulPartitionedCall/sequential/bidirectional_1/backward_lstm_1/PartitionedCall/TensorArrayV2_1/num_elements", "op": "Const", "attr": {"value": {"tensor": {"dtype": "DT_INT32", "tensorShape": {}}}, "dtype": {"type": "DT_INT32"}}}, {"name": "StatefulPartitionedCall/sequential/bidirectional_1/backward_lstm_1/zeros_1/packed/1", "op": "Const", "attr": {"dtype": {"type": "DT_INT32"}, "value": {"tensor": {"dtype": "DT_INT32", "tensorShape": {}}}}}, {"name": "StatefulPartitionedCall/sequential/bidirectional_1/backward_lstm_1/zeros_1/Const", "op": "Const", "attr": {"value": {"tensor": {"dtype": "DT_FLOAT", "tensorShape": {}}}, "dtype": {"type": "DT_FLOAT"}}}, {"name": "StatefulPartitionedCall/sequential/bidirectional_1/backward_lstm_1/PartitionedCall/ReverseV2/axis", "op": "Const", "attr": {"value": {"tensor": {"dtype": "DT_INT32", "tensorShape": {"dim": [{"size": "1"}]}}}, "dtype": {"type": "DT_INT32"}}}, {"name": "StatefulPartitionedCall/sequential/bidirectional_1/backward_lstm_1/PartitionedCall/TensorArrayUnstack/TensorListFromTensor/element_shape", "op": "Const", "attr": {"dtype": {"type": "DT_INT32"}, "value": {"tensor": {"dtype": "DT_INT32", "tensorShape": {"dim": [{"size": "2"}]}}}}}, {"name": "StatefulPartitionedCall/sequential/bidirectional_1/backward_lstm_1/Read/ReadVariableOp", "op": "Const", "attr": {"dtype": {"type": "DT_FLOAT"}, "value": {"tensor": {"dtype": "DT_FLOAT", "tensorShape": {"dim": [{"size": "128"}, {"size": "512"}]}}}}}, {"name": "StatefulPartitionedCall/sequential/bidirectional_1/backward_lstm_1/strided_slice/stack", "op": "Const", "attr": {"value": {"tensor": {"dtype": "DT_INT32", "tensorShape": {"dim": [{"size": "1"}]}}}, "dtype": {"type": "DT_INT32"}}}, {"name": "StatefulPartitionedCall/sequential/bidirectional_1/backward_lstm_1/strided_slice/stack_1", "op": "Const", "attr": {"dtype": {"type": "DT_INT32"}, "value": {"tensor": {"dtype": "DT_INT32", "tensorShape": {"dim": [{"size": "1"}]}}}}}, {"name": "StatefulPartitionedCall/sequential/bidirectional_1/backward_lstm_1/strided_slice/stack_2", "op": "Const", "attr": {"value": {"tensor": {"dtype": "DT_INT32", "tensorShape": {"dim": [{"size": "1"}]}}}, "dtype": {"type": "DT_INT32"}}}, {"name": "StatefulPartitionedCall/sequential/bidirectional_1/backward_lstm_1/zeros/packed/1", "op": "Const", "attr": {"dtype": {"type": "DT_INT32"}, "value": {"tensor": {"dtype": "DT_INT32", "tensorShape": {}}}}}, {"name": "StatefulPartitionedCall/sequential/bidirectional_1/backward_lstm_1/zeros/Const", "op": "Const", "attr": {"dtype": {"type": "DT_FLOAT"}, "value": {"tensor": {"dtype": "DT_FLOAT", "tensorShape": {}}}}}, {"name": "StatefulPartitionedCall/sequential/bidirectional_1/backward_lstm_1/Read_1/ReadVariableOp", "op": "Const", "attr": {"value": {"tensor": {"dtype": "DT_FLOAT", "tensorShape": {"dim": [{"size": "128"}, {"size": "512"}]}}}, "dtype": {"type": "DT_FLOAT"}}}, {"name": "StatefulPartitionedCall/sequential/bidirectional_1/backward_lstm_1/Read_2/ReadVariableOp", "op": "Const", "attr": {"value": {"tensor": {"dtype": "DT_FLOAT", "tensorShape": {"dim": [{"size": "512"}]}}}, "dtype": {"type": "DT_FLOAT"}}}, {"name": "StatefulPartitionedCall/sequential/bidirectional_1/backward_lstm_1/PartitionedCall/time", "op": "Const", "attr": {"value": {"tensor": {"dtype": "DT_INT32", "tensorShape": {}}}, "dtype": {"type": "DT_INT32"}}}, {"name": "StatefulPartitionedCall/sequential/bidirectional/forward_lstm/PartitionedCall/TensorArrayV2_1/element_shape", "op": "Const", "attr": {"dtype": {"type": "DT_INT32"}, "value": {"tensor": {"dtype": "DT_INT32", "tensorShape": {"dim": [{"size": "2"}]}}}}}, {"name": "StatefulPartitionedCall/sequential/bidirectional/forward_lstm/zeros_1/packed/1", "op": "Const", "attr": {"dtype": {"type": "DT_INT32"}, "value": {"tensor": {"dtype": "DT_INT32", "tensorShape": {}}}}}, {"name": "StatefulPartitionedCall/sequential/bidirectional/forward_lstm/zeros_1/Const", "op": "Const", "attr": {"value": {"tensor": {"dtype": "DT_FLOAT", "tensorShape": {}}}, "dtype": {"type": "DT_FLOAT"}}}, {"name": "StatefulPartitionedCall/sequential/bidirectional/forward_lstm/PartitionedCall/TensorArrayUnstack/TensorListFromTensor/element_shape", "op": "Const", "attr": {"value": {"tensor": {"dtype": "DT_INT32", "tensorShape": {"dim": [{"size": "2"}]}}}, "dtype": {"type": "DT_INT32"}}}, {"name": "StatefulPartitionedCall/sequential/bidirectional/forward_lstm/Read/ReadVariableOp", "op": "Const", "attr": {"dtype": {"type": "DT_FLOAT"}, "value": {"tensor": {"dtype": "DT_FLOAT", "tensorShape": {"dim": [{"size": "128"}, {"size": "256"}]}}}}}, {"name": "StatefulPartitionedCall/sequential/bidirectional/forward_lstm/strided_slice/stack", "op": "Const", "attr": {"dtype": {"type": "DT_INT32"}, "value": {"tensor": {"dtype": "DT_INT32", "tensorShape": {"dim": [{"size": "1"}]}}}}}, {"name": "StatefulPartitionedCall/sequential/bidirectional/forward_lstm/strided_slice/stack_1", "op": "Const", "attr": {"dtype": {"type": "DT_INT32"}, "value": {"tensor": {"dtype": "DT_INT32", "tensorShape": {"dim": [{"size": "1"}]}}}}}, {"name": "StatefulPartitionedCall/sequential/bidirectional/forward_lstm/strided_slice/stack_2", "op": "Const", "attr": {"dtype": {"type": "DT_INT32"}, "value": {"tensor": {"dtype": "DT_INT32", "tensorShape": {"dim": [{"size": "1"}]}}}}}, {"name": "StatefulPartitionedCall/sequential/bidirectional/forward_lstm/zeros/packed/1", "op": "Const", "attr": {"value": {"tensor": {"dtype": "DT_INT32", "tensorShape": {}}}, "dtype": {"type": "DT_INT32"}}}, {"name": "StatefulPartitionedCall/sequential/bidirectional/forward_lstm/zeros/Const", "op": "Const", "attr": {"dtype": {"type": "DT_FLOAT"}, "value": {"tensor": {"dtype": "DT_FLOAT", "tensorShape": {}}}}}, {"name": "StatefulPartitionedCall/sequential/bidirectional/forward_lstm/Read_1/ReadVariableOp", "op": "Const", "attr": {"dtype": {"type": "DT_FLOAT"}, "value": {"tensor": {"dtype": "DT_FLOAT", "tensorShape": {"dim": [{"size": "64"}, {"size": "256"}]}}}}}, {"name": "StatefulPartitionedCall/sequential/bidirectional/forward_lstm/Read_2/ReadVariableOp", "op": "Const", "attr": {"dtype": {"type": "DT_FLOAT"}, "value": {"tensor": {"dtype": "DT_FLOAT", "tensorShape": {"dim": [{"size": "256"}]}}}}}, {"name": "StatefulPartitionedCall/sequential/bidirectional/forward_lstm/PartitionedCall/time", "op": "Const", "attr": {"dtype": {"type": "DT_INT32"}, "value": {"tensor": {"dtype": "DT_INT32", "tensorShape": {}}}}}, {"name": "StatefulPartitionedCall/sequential/bidirectional/forward_lstm/PartitionedCall/transpose/perm", "op": "Const", "attr": {"value": {"tensor": {"dtype": "DT_INT32", "tensorShape": {"dim": [{"size": "3"}]}}}, "dtype": {"type": "DT_INT32"}}}, {"name": "StatefulPartitionedCall/sequential/bidirectional/forward_lstm/PartitionedCall/strided_slice/stack", "op": "Const", "attr": {"value": {"tensor": {"dtype": "DT_INT32", "tensorShape": {"dim": [{"size": "1"}]}}}, "dtype": {"type": "DT_INT32"}}}, {"name": "StatefulPartitionedCall/sequential/bidirectional/forward_lstm/PartitionedCall/strided_slice/stack_1", "op": "Const", "attr": {"value": {"tensor": {"dtype": "DT_INT32", "tensorShape": {"dim": [{"size": "1"}]}}}, "dtype": {"type": "DT_INT32"}}}, {"name": "StatefulPartitionedCall/sequential/bidirectional/forward_lstm/PartitionedCall/strided_slice/stack_2", "op": "Const", "attr": {"dtype": {"type": "DT_INT32"}, "value": {"tensor": {"dtype": "DT_INT32", "tensorShape": {"dim": [{"size": "1"}]}}}}}, {"name": "StatefulPartitionedCall/sequential/bidirectional/forward_lstm/PartitionedCall/while/loop_counter", "op": "Const", "attr": {"value": {"tensor": {"dtype": "DT_INT32", "tensorShape": {}}}, "dtype": {"type": "DT_INT32"}}}, {"name": "StatefulPartitionedCall/sequential/bidirectional/forward_lstm/PartitionedCall/TensorArrayV2Stack/TensorListStack/element_shape", "op": "Const", "attr": {"value": {"tensor": {"dtype": "DT_INT32", "tensorShape": {"dim": [{"size": "2"}]}}}, "dtype": {"type": "DT_INT32"}}}, {"name": "StatefulPartitionedCall/sequential/bidirectional/forward_lstm/PartitionedCall/transpose_1/perm", "op": "Const", "attr": {"dtype": {"type": "DT_INT32"}, "value": {"tensor": {"dtype": "DT_INT32", "tensorShape": {"dim": [{"size": "3"}]}}}}}, {"name": "StatefulPartitionedCall/sequential/bidirectional/backward_lstm/PartitionedCall/TensorArrayV2_1/element_shape", "op": "Const", "attr": {"dtype": {"type": "DT_INT32"}, "value": {"tensor": {"dtype": "DT_INT32", "tensorShape": {"dim": [{"size": "2"}]}}}}}, {"name": "StatefulPartitionedCall/sequential/bidirectional/backward_lstm/zeros_1/packed/1", "op": "Const", "attr": {"value": {"tensor": {"dtype": "DT_INT32", "tensorShape": {}}}, "dtype": {"type": "DT_INT32"}}}, {"name": "StatefulPartitionedCall/sequential/bidirectional/backward_lstm/zeros_1/Const", "op": "Const", "attr": {"dtype": {"type": "DT_FLOAT"}, "value": {"tensor": {"dtype": "DT_FLOAT", "tensorShape": {}}}}}, {"name": "StatefulPartitionedCall/sequential/bidirectional/backward_lstm/PartitionedCall/ReverseV2/axis", "op": "Const", "attr": {"value": {"tensor": {"dtype": "DT_INT32", "tensorShape": {"dim": [{"size": "1"}]}}}, "dtype": {"type": "DT_INT32"}}}, {"name": "StatefulPartitionedCall/sequential/bidirectional/backward_lstm/PartitionedCall/TensorArrayUnstack/TensorListFromTensor/element_shape", "op": "Const", "attr": {"value": {"tensor": {"dtype": "DT_INT32", "tensorShape": {"dim": [{"size": "2"}]}}}, "dtype": {"type": "DT_INT32"}}}, {"name": "StatefulPartitionedCall/sequential/bidirectional/backward_lstm/Read/ReadVariableOp", "op": "Const", "attr": {"dtype": {"type": "DT_FLOAT"}, "value": {"tensor": {"dtype": "DT_FLOAT", "tensorShape": {"dim": [{"size": "128"}, {"size": "256"}]}}}}}, {"name": "StatefulPartitionedCall/sequential/bidirectional/backward_lstm/strided_slice/stack", "op": "Const", "attr": {"dtype": {"type": "DT_INT32"}, "value": {"tensor": {"dtype": "DT_INT32", "tensorShape": {"dim": [{"size": "1"}]}}}}}, {"name": "StatefulPartitionedCall/sequential/bidirectional/backward_lstm/strided_slice/stack_1", "op": "Const", "attr": {"dtype": {"type": "DT_INT32"}, "value": {"tensor": {"dtype": "DT_INT32", "tensorShape": {"dim": [{"size": "1"}]}}}}}, {"name": "StatefulPartitionedCall/sequential/bidirectional/backward_lstm/strided_slice/stack_2", "op": "Const", "attr": {"value": {"tensor": {"dtype": "DT_INT32", "tensorShape": {"dim": [{"size": "1"}]}}}, "dtype": {"type": "DT_INT32"}}}, {"name": "StatefulPartitionedCall/sequential/bidirectional/backward_lstm/zeros/packed/1", "op": "Const", "attr": {"value": {"tensor": {"dtype": "DT_INT32", "tensorShape": {}}}, "dtype": {"type": "DT_INT32"}}}, {"name": "StatefulPartitionedCall/sequential/bidirectional/backward_lstm/zeros/Const", "op": "Const", "attr": {"dtype": {"type": "DT_FLOAT"}, "value": {"tensor": {"dtype": "DT_FLOAT", "tensorShape": {}}}}}, {"name": "StatefulPartitionedCall/sequential/bidirectional/backward_lstm/Read_1/ReadVariableOp", "op": "Const", "attr": {"value": {"tensor": {"dtype": "DT_FLOAT", "tensorShape": {"dim": [{"size": "64"}, {"size": "256"}]}}}, "dtype": {"type": "DT_FLOAT"}}}, {"name": "StatefulPartitionedCall/sequential/bidirectional/backward_lstm/Read_2/ReadVariableOp", "op": "Const", "attr": {"dtype": {"type": "DT_FLOAT"}, "value": {"tensor": {"dtype": "DT_FLOAT", "tensorShape": {"dim": [{"size": "256"}]}}}}}, {"name": "StatefulPartitionedCall/sequential/bidirectional/backward_lstm/PartitionedCall/time", "op": "Const", "attr": {"dtype": {"type": "DT_INT32"}, "value": {"tensor": {"dtype": "DT_INT32", "tensorShape": {}}}}}, {"name": "StatefulPartitionedCall/sequential/conv1d_4/Conv1D/SpaceToBatchND/block_shape", "op": "Const", "attr": {"value": {"tensor": {"dtype": "DT_INT32", "tensorShape": {"dim": [{"size": "1"}]}}}, "dtype": {"type": "DT_INT32"}}}, {"name": "StatefulPartitionedCall/sequential/conv1d_4/Conv1D/required_space_to_batch_paddings/strided_slice_2", "op": "Const", "attr": {"dtype": {"type": "DT_INT32"}, "value": {"tensor": {"dtype": "DT_INT32", "tensorShape": {}}}}}, {"name": "StatefulPartitionedCall/sequential/conv1d_4/Conv1D/required_space_to_batch_paddings/strided_slice_1", "op": "Const", "attr": {"value": {"tensor": {"dtype": "DT_INT32", "tensorShape": {"dim": [{"size": "1"}]}}}, "dtype": {"type": "DT_INT32"}}}, {"name": "StatefulPartitionedCall/sequential/conv1d_4/Conv1D/required_space_to_batch_paddings/strided_slice_3/stack", "op": "Const", "attr": {"dtype": {"type": "DT_INT32"}, "value": {"tensor": {"dtype": "DT_INT32", "tensorShape": {"dim": [{"size": "1"}]}}}}}, {"name": "StatefulPartitionedCall/sequential/conv1d_4/Conv1D/required_space_to_batch_paddings/strided_slice_3/stack_1", "op": "Const", "attr": {"dtype": {"type": "DT_INT32"}, "value": {"tensor": {"dtype": "DT_INT32", "tensorShape": {"dim": [{"size": "1"}]}}}}}, {"name": "StatefulPartitionedCall/sequential/conv1d_4/Conv1D/required_space_to_batch_paddings/strided_slice_3/stack_2", "op": "Const", "attr": {"value": {"tensor": {"dtype": "DT_INT32", "tensorShape": {"dim": [{"size": "1"}]}}}, "dtype": {"type": "DT_INT32"}}}, {"name": "StatefulPartitionedCall/sequential/conv1d_4/Conv1D/ExpandDims/dim", "op": "Const", "attr": {"value": {"tensor": {"dtype": "DT_INT32", "tensorShape": {}}}, "dtype": {"type": "DT_INT32"}}}, {"name": "StatefulPartitionedCall/sequential/conv1d_4/Conv1D/ExpandDims_1", "op": "Const", "attr": {"value": {"tensor": {"dtype": "DT_FLOAT", "tensorShape": {"dim": [{"size": "1"}, {"size": "3"}, {"size": "128"}, {"size": "128"}]}}}, "dtype": {"type": "DT_FLOAT"}}}, {"name": "StatefulPartitionedCall/sequential/conv1d_4/Conv1D/BatchToSpaceND/block_shape", "op": "Const", "attr": {"dtype": {"type": "DT_INT32"}, "value": {"tensor": {"dtype": "DT_INT32", "tensorShape": {"dim": [{"size": "1"}]}}}}}, {"name": "StatefulPartitionedCall/sequential/conv1d_4/Conv1D/required_space_to_batch_paddings/crops/0/0", "op": "Const", "attr": {"dtype": {"type": "DT_INT32"}, "value": {"tensor": {"dtype": "DT_INT32", "tensorShape": {}}}}}, {"name": "StatefulPartitionedCall/sequential/conv1d_3/Conv1D/SpaceToBatchND/block_shape", "op": "Const", "attr": {"dtype": {"type": "DT_INT32"}, "value": {"tensor": {"dtype": "DT_INT32", "tensorShape": {"dim": [{"size": "1"}]}}}}}, {"name": "StatefulPartitionedCall/sequential/conv1d_3/Conv1D/required_space_to_batch_paddings/strided_slice_2", "op": "Const", "attr": {"dtype": {"type": "DT_INT32"}, "value": {"tensor": {"dtype": "DT_INT32", "tensorShape": {}}}}}, {"name": "StatefulPartitionedCall/sequential/conv1d_3/Conv1D/required_space_to_batch_paddings/strided_slice_1", "op": "Const", "attr": {"dtype": {"type": "DT_INT32"}, "value": {"tensor": {"dtype": "DT_INT32", "tensorShape": {"dim": [{"size": "1"}]}}}}}, {"name": "StatefulPartitionedCall/sequential/conv1d_3/Conv1D/required_space_to_batch_paddings/strided_slice_3/stack", "op": "Const", "attr": {"value": {"tensor": {"dtype": "DT_INT32", "tensorShape": {"dim": [{"size": "1"}]}}}, "dtype": {"type": "DT_INT32"}}}, {"name": "StatefulPartitionedCall/sequential/conv1d_3/Conv1D/required_space_to_batch_paddings/strided_slice_3/stack_1", "op": "Const", "attr": {"dtype": {"type": "DT_INT32"}, "value": {"tensor": {"dtype": "DT_INT32", "tensorShape": {"dim": [{"size": "1"}]}}}}}, {"name": "StatefulPartitionedCall/sequential/conv1d_3/Conv1D/required_space_to_batch_paddings/strided_slice_3/stack_2", "op": "Const", "attr": {"value": {"tensor": {"dtype": "DT_INT32", "tensorShape": {"dim": [{"size": "1"}]}}}, "dtype": {"type": "DT_INT32"}}}, {"name": "StatefulPartitionedCall/sequential/conv1d_3/Conv1D/ExpandDims/dim", "op": "Const", "attr": {"value": {"tensor": {"dtype": "DT_INT32", "tensorShape": {}}}, "dtype": {"type": "DT_INT32"}}}, {"name": "StatefulPartitionedCall/sequential/conv1d_3/Conv1D/ExpandDims_1", "op": "Const", "attr": {"value": {"tensor": {"dtype": "DT_FLOAT", "tensorShape": {"dim": [{"size": "1"}, {"size": "3"}, {"size": "64"}, {"size": "128"}]}}}, "dtype": {"type": "DT_FLOAT"}}}, {"name": "StatefulPartitionedCall/sequential/conv1d_3/Conv1D/BatchToSpaceND/block_shape", "op": "Const", "attr": {"dtype": {"type": "DT_INT32"}, "value": {"tensor": {"dtype": "DT_INT32", "tensorShape": {"dim": [{"size": "1"}]}}}}}, {"name": "StatefulPartitionedCall/sequential/conv1d_3/Conv1D/required_space_to_batch_paddings/crops/0/0", "op": "Const", "attr": {"dtype": {"type": "DT_INT32"}, "value": {"tensor": {"dtype": "DT_INT32", "tensorShape": {}}}}}, {"name": "StatefulPartitionedCall/sequential/conv1d_1/Conv1D/SpaceToBatchND/block_shape", "op": "Const", "attr": {"value": {"tensor": {"dtype": "DT_INT32", "tensorShape": {"dim": [{"size": "1"}]}}}, "dtype": {"type": "DT_INT32"}}}, {"name": "StatefulPartitionedCall/sequential/conv1d_1/Conv1D/required_space_to_batch_paddings/strided_slice_2", "op": "Const", "attr": {"dtype": {"type": "DT_INT32"}, "value": {"tensor": {"dtype": "DT_INT32", "tensorShape": {}}}}}, {"name": "StatefulPartitionedCall/sequential/conv1d_1/Conv1D/required_space_to_batch_paddings/strided_slice_1", "op": "Const", "attr": {"dtype": {"type": "DT_INT32"}, "value": {"tensor": {"dtype": "DT_INT32", "tensorShape": {"dim": [{"size": "1"}]}}}}}, {"name": "StatefulPartitionedCall/sequential/conv1d_1/Conv1D/required_space_to_batch_paddings/strided_slice_3/stack", "op": "Const", "attr": {"value": {"tensor": {"dtype": "DT_INT32", "tensorShape": {"dim": [{"size": "1"}]}}}, "dtype": {"type": "DT_INT32"}}}, {"name": "StatefulPartitionedCall/sequential/conv1d_1/Conv1D/required_space_to_batch_paddings/strided_slice_3/stack_1", "op": "Const", "attr": {"value": {"tensor": {"dtype": "DT_INT32", "tensorShape": {"dim": [{"size": "1"}]}}}, "dtype": {"type": "DT_INT32"}}}, {"name": "StatefulPartitionedCall/sequential/conv1d_1/Conv1D/required_space_to_batch_paddings/strided_slice_3/stack_2", "op": "Const", "attr": {"dtype": {"type": "DT_INT32"}, "value": {"tensor": {"dtype": "DT_INT32", "tensorShape": {"dim": [{"size": "1"}]}}}}}, {"name": "StatefulPartitionedCall/sequential/conv1d_1/Conv1D/ExpandDims/dim", "op": "Const", "attr": {"dtype": {"type": "DT_INT32"}, "value": {"tensor": {"dtype": "DT_INT32", "tensorShape": {}}}}}, {"name": "StatefulPartitionedCall/sequential/conv1d_1/Conv1D/ExpandDims_1", "op": "Const", "attr": {"dtype": {"type": "DT_FLOAT"}, "value": {"tensor": {"dtype": "DT_FLOAT", "tensorShape": {"dim": [{"size": "1"}, {"size": "3"}, {"size": "64"}, {"size": "64"}]}}}}}, {"name": "StatefulPartitionedCall/sequential/conv1d_1/Conv1D/BatchToSpaceND/block_shape", "op": "Const", "attr": {"value": {"tensor": {"dtype": "DT_INT32", "tensorShape": {"dim": [{"size": "1"}]}}}, "dtype": {"type": "DT_INT32"}}}, {"name": "StatefulPartitionedCall/sequential/conv1d_1/Conv1D/required_space_to_batch_paddings/crops/0/0", "op": "Const", "attr": {"dtype": {"type": "DT_INT32"}, "value": {"tensor": {"dtype": "DT_INT32", "tensorShape": {}}}}}, {"name": "StatefulPartitionedCall/sequential/conv1d/Conv1D/SpaceToBatchND/block_shape", "op": "Const", "attr": {"dtype": {"type": "DT_INT32"}, "value": {"tensor": {"dtype": "DT_INT32", "tensorShape": {"dim": [{"size": "1"}]}}}}}, {"name": "StatefulPartitionedCall/sequential/conv1d/Conv1D/required_space_to_batch_paddings/strided_slice_2", "op": "Const", "attr": {"dtype": {"type": "DT_INT32"}, "value": {"tensor": {"dtype": "DT_INT32", "tensorShape": {}}}}}, {"name": "StatefulPartitionedCall/sequential/conv1d/Conv1D/required_space_to_batch_paddings/strided_slice_1", "op": "Const", "attr": {"dtype": {"type": "DT_INT32"}, "value": {"tensor": {"dtype": "DT_INT32", "tensorShape": {"dim": [{"size": "1"}]}}}}}, {"name": "StatefulPartitionedCall/sequential/conv1d/Conv1D/required_space_to_batch_paddings/strided_slice_3/stack", "op": "Const", "attr": {"dtype": {"type": "DT_INT32"}, "value": {"tensor": {"dtype": "DT_INT32", "tensorShape": {"dim": [{"size": "1"}]}}}}}, {"name": "StatefulPartitionedCall/sequential/conv1d/Conv1D/required_space_to_batch_paddings/strided_slice_3/stack_1", "op": "Const", "attr": {"value": {"tensor": {"dtype": "DT_INT32", "tensorShape": {"dim": [{"size": "1"}]}}}, "dtype": {"type": "DT_INT32"}}}, {"name": "StatefulPartitionedCall/sequential/conv1d/Conv1D/required_space_to_batch_paddings/strided_slice_3/stack_2", "op": "Const", "attr": {"dtype": {"type": "DT_INT32"}, "value": {"tensor": {"dtype": "DT_INT32", "tensorShape": {"dim": [{"size": "1"}]}}}}}, {"name": "StatefulPartitionedCall/sequential/conv1d/Conv1D/ExpandDims/dim", "op": "Const", "attr": {"value": {"tensor": {"dtype": "DT_INT32", "tensorShape": {}}}, "dtype": {"type": "DT_INT32"}}}, {"name": "StatefulPartitionedCall/sequential/conv1d/Conv1D/ExpandDims_1", "op": "Const", "attr": {"value": {"tensor": {"dtype": "DT_FLOAT", "tensorShape": {"dim": [{"size": "1"}, {"size": "3"}, {"size": "32"}, {"size": "64"}]}}}, "dtype": {"type": "DT_FLOAT"}}}, {"name": "StatefulPartitionedCall/sequential/conv1d/Conv1D/BatchToSpaceND/block_shape", "op": "Const", "attr": {"value": {"tensor": {"dtype": "DT_INT32", "tensorShape": {"dim": [{"size": "1"}]}}}, "dtype": {"type": "DT_INT32"}}}, {"name": "StatefulPartitionedCall/sequential/conv1d/Conv1D/required_space_to_batch_paddings/crops/0/0", "op": "Const", "attr": {"value": {"tensor": {"dtype": "DT_INT32", "tensorShape": {}}}, "dtype": {"type": "DT_INT32"}}}, {"name": "StatefulPartitionedCall/sequential/conv1d/Conv1D/strided_slice/stack", "op": "Const", "attr": {"dtype": {"type": "DT_INT32"}, "value": {"tensor": {"dtype": "DT_INT32", "tensorShape": {"dim": [{"size": "1"}]}}}}}, {"name": "StatefulPartitionedCall/sequential/conv1d/Conv1D/strided_slice/stack_1", "op": "Const", "attr": {"dtype": {"type": "DT_INT32"}, "value": {"tensor": {"dtype": "DT_INT32", "tensorShape": {"dim": [{"size": "1"}]}}}}}, {"name": "StatefulPartitionedCall/sequential/conv1d/Conv1D/strided_slice/stack_2", "op": "Const", "attr": {"value": {"tensor": {"dtype": "DT_INT32", "tensorShape": {"dim": [{"size": "1"}]}}}, "dtype": {"type": "DT_INT32"}}}, {"name": "StatefulPartitionedCall/sequential/conv1d/Conv1D/required_space_to_batch_paddings/add", "op": "Const", "attr": {"value": {"tensor": {"dtype": "DT_INT32", "tensorShape": {"dim": [{"size": "1"}]}}}, "dtype": {"type": "DT_INT32"}}}, {"name": "StatefulPartitionedCall/sequential/conv1d/Conv1D/dilation_rate", "op": "Const", "attr": {"dtype": {"type": "DT_INT32"}, "value": {"tensor": {"dtype": "DT_INT32", "tensorShape": {"dim": [{"size": "1"}]}}}}}, {"name": "StatefulPartitionedCall/sequential/conv1d/Conv1D/required_space_to_batch_paddings/strided_slice_4/stack", "op": "Const", "attr": {"dtype": {"type": "DT_INT32"}, "value": {"tensor": {"dtype": "DT_INT32", "tensorShape": {"dim": [{"size": "1"}]}}}}}, {"name": "StatefulPartitionedCall/sequential/conv1d/Conv1D/required_space_to_batch_paddings/strided_slice_4/stack_1", "op": "Const", "attr": {"dtype": {"type": "DT_INT32"}, "value": {"tensor": {"dtype": "DT_INT32", "tensorShape": {"dim": [{"size": "1"}]}}}}}, {"name": "StatefulPartitionedCall/sequential/conv1d/Conv1D/required_space_to_batch_paddings/strided_slice_4/stack_2", "op": "Const", "attr": {"dtype": {"type": "DT_INT32"}, "value": {"tensor": {"dtype": "DT_INT32", "tensorShape": {"dim": [{"size": "1"}]}}}}}, {"name": "StatefulPartitionedCall/sequential/conv1d/BiasAdd/ReadVariableOp", "op": "Const", "attr": {"dtype": {"type": "DT_FLOAT"}, "value": {"tensor": {"dtype": "DT_FLOAT", "tensorShape": {"dim": [{"size": "64"}]}}}}}, {"name": "StatefulPartitionedCall/sequential/batch_normalization/batchnorm/mul", "op": "Const", "attr": {"value": {"tensor": {"dtype": "DT_FLOAT", "tensorShape": {"dim": [{"size": "64"}]}}}, "dtype": {"type": "DT_FLOAT"}}}, {"name": "StatefulPartitionedCall/sequential/batch_normalization/batchnorm/sub", "op": "Const", "attr": {"dtype": {"type": "DT_FLOAT"}, "value": {"tensor": {"dtype": "DT_FLOAT", "tensorShape": {"dim": [{"size": "64"}]}}}}}, {"name": "StatefulPartitionedCall/sequential/conv1d_1/Conv1D/strided_slice/stack", "op": "Const", "attr": {"value": {"tensor": {"dtype": "DT_INT32", "tensorShape": {"dim": [{"size": "1"}]}}}, "dtype": {"type": "DT_INT32"}}}, {"name": "StatefulPartitionedCall/sequential/conv1d_1/Conv1D/strided_slice/stack_1", "op": "Const", "attr": {"dtype": {"type": "DT_INT32"}, "value": {"tensor": {"dtype": "DT_INT32", "tensorShape": {"dim": [{"size": "1"}]}}}}}, {"name": "StatefulPartitionedCall/sequential/conv1d_1/Conv1D/strided_slice/stack_2", "op": "Const", "attr": {"value": {"tensor": {"dtype": "DT_INT32", "tensorShape": {"dim": [{"size": "1"}]}}}, "dtype": {"type": "DT_INT32"}}}, {"name": "StatefulPartitionedCall/sequential/conv1d_1/Conv1D/required_space_to_batch_paddings/add", "op": "Const", "attr": {"value": {"tensor": {"dtype": "DT_INT32", "tensorShape": {"dim": [{"size": "1"}]}}}, "dtype": {"type": "DT_INT32"}}}, {"name": "StatefulPartitionedCall/sequential/conv1d_1/Conv1D/dilation_rate", "op": "Const", "attr": {"value": {"tensor": {"dtype": "DT_INT32", "tensorShape": {"dim": [{"size": "1"}]}}}, "dtype": {"type": "DT_INT32"}}}, {"name": "StatefulPartitionedCall/sequential/conv1d_1/Conv1D/required_space_to_batch_paddings/strided_slice_4/stack", "op": "Const", "attr": {"value": {"tensor": {"dtype": "DT_INT32", "tensorShape": {"dim": [{"size": "1"}]}}}, "dtype": {"type": "DT_INT32"}}}, {"name": "StatefulPartitionedCall/sequential/conv1d_1/Conv1D/required_space_to_batch_paddings/strided_slice_4/stack_1", "op": "Const", "attr": {"dtype": {"type": "DT_INT32"}, "value": {"tensor": {"dtype": "DT_INT32", "tensorShape": {"dim": [{"size": "1"}]}}}}}, {"name": "StatefulPartitionedCall/sequential/conv1d_1/Conv1D/required_space_to_batch_paddings/strided_slice_4/stack_2", "op": "Const", "attr": {"dtype": {"type": "DT_INT32"}, "value": {"tensor": {"dtype": "DT_INT32", "tensorShape": {"dim": [{"size": "1"}]}}}}}, {"name": "StatefulPartitionedCall/sequential/conv1d_1/BiasAdd/ReadVariableOp", "op": "Const", "attr": {"dtype": {"type": "DT_FLOAT"}, "value": {"tensor": {"dtype": "DT_FLOAT", "tensorShape": {"dim": [{"size": "64"}]}}}}}, {"name": "StatefulPartitionedCall/sequential/batch_normalization_1/batchnorm/mul", "op": "Const", "attr": {"value": {"tensor": {"dtype": "DT_FLOAT", "tensorShape": {"dim": [{"size": "64"}]}}}, "dtype": {"type": "DT_FLOAT"}}}, {"name": "StatefulPartitionedCall/sequential/batch_normalization_1/batchnorm/sub", "op": "Const", "attr": {"value": {"tensor": {"dtype": "DT_FLOAT", "tensorShape": {"dim": [{"size": "64"}]}}}, "dtype": {"type": "DT_FLOAT"}}}, {"name": "StatefulPartitionedCall/sequential/conv1d_2/Conv1D/ExpandDims/dim", "op": "Const", "attr": {"dtype": {"type": "DT_INT32"}, "value": {"tensor": {"dtype": "DT_INT32", "tensorShape": {}}}}}, {"name": "StatefulPartitionedCall/sequential/conv1d_2/Conv1D/ExpandDims_1", "op": "Const", "attr": {"value": {"tensor": {"dtype": "DT_FLOAT", "tensorShape": {"dim": [{"size": "1"}, {"size": "1"}, {"size": "64"}, {"size": "64"}]}}}, "dtype": {"type": "DT_FLOAT"}}}, {"name": "StatefulPartitionedCall/sequential/conv1d_2/BiasAdd/ReadVariableOp", "op": "Const", "attr": {"dtype": {"type": "DT_FLOAT"}, "value": {"tensor": {"dtype": "DT_FLOAT", "tensorShape": {"dim": [{"size": "64"}]}}}}}, {"name": "StatefulPartitionedCall/sequential/max_pooling1d/ExpandDims/dim", "op": "Const", "attr": {"dtype": {"type": "DT_INT32"}, "value": {"tensor": {"dtype": "DT_INT32", "tensorShape": {}}}}}, {"name": "StatefulPartitionedCall/sequential/conv1d_3/Conv1D/strided_slice/stack", "op": "Const", "attr": {"dtype": {"type": "DT_INT32"}, "value": {"tensor": {"dtype": "DT_INT32", "tensorShape": {"dim": [{"size": "1"}]}}}}}, {"name": "StatefulPartitionedCall/sequential/conv1d_3/Conv1D/strided_slice/stack_1", "op": "Const", "attr": {"dtype": {"type": "DT_INT32"}, "value": {"tensor": {"dtype": "DT_INT32", "tensorShape": {"dim": [{"size": "1"}]}}}}}, {"name": "StatefulPartitionedCall/sequential/conv1d_3/Conv1D/strided_slice/stack_2", "op": "Const", "attr": {"value": {"tensor": {"dtype": "DT_INT32", "tensorShape": {"dim": [{"size": "1"}]}}}, "dtype": {"type": "DT_INT32"}}}, {"name": "StatefulPartitionedCall/sequential/conv1d_3/Conv1D/required_space_to_batch_paddings/add", "op": "Const", "attr": {"dtype": {"type": "DT_INT32"}, "value": {"tensor": {"dtype": "DT_INT32", "tensorShape": {"dim": [{"size": "1"}]}}}}}, {"name": "StatefulPartitionedCall/sequential/conv1d_3/Conv1D/dilation_rate", "op": "Const", "attr": {"dtype": {"type": "DT_INT32"}, "value": {"tensor": {"dtype": "DT_INT32", "tensorShape": {"dim": [{"size": "1"}]}}}}}, {"name": "StatefulPartitionedCall/sequential/conv1d_3/Conv1D/required_space_to_batch_paddings/strided_slice_4/stack", "op": "Const", "attr": {"dtype": {"type": "DT_INT32"}, "value": {"tensor": {"dtype": "DT_INT32", "tensorShape": {"dim": [{"size": "1"}]}}}}}, {"name": "StatefulPartitionedCall/sequential/conv1d_3/Conv1D/required_space_to_batch_paddings/strided_slice_4/stack_1", "op": "Const", "attr": {"dtype": {"type": "DT_INT32"}, "value": {"tensor": {"dtype": "DT_INT32", "tensorShape": {"dim": [{"size": "1"}]}}}}}, {"name": "StatefulPartitionedCall/sequential/conv1d_3/Conv1D/required_space_to_batch_paddings/strided_slice_4/stack_2", "op": "Const", "attr": {"dtype": {"type": "DT_INT32"}, "value": {"tensor": {"dtype": "DT_INT32", "tensorShape": {"dim": [{"size": "1"}]}}}}}, {"name": "StatefulPartitionedCall/sequential/conv1d_3/BiasAdd/ReadVariableOp", "op": "Const", "attr": {"value": {"tensor": {"dtype": "DT_FLOAT", "tensorShape": {"dim": [{"size": "128"}]}}}, "dtype": {"type": "DT_FLOAT"}}}, {"name": "StatefulPartitionedCall/sequential/batch_normalization_2/batchnorm/mul", "op": "Const", "attr": {"value": {"tensor": {"dtype": "DT_FLOAT", "tensorShape": {"dim": [{"size": "128"}]}}}, "dtype": {"type": "DT_FLOAT"}}}, {"name": "StatefulPartitionedCall/sequential/batch_normalization_2/batchnorm/sub", "op": "Const", "attr": {"dtype": {"type": "DT_FLOAT"}, "value": {"tensor": {"dtype": "DT_FLOAT", "tensorShape": {"dim": [{"size": "128"}]}}}}}, {"name": "StatefulPartitionedCall/sequential/conv1d_4/Conv1D/strided_slice/stack", "op": "Const", "attr": {"dtype": {"type": "DT_INT32"}, "value": {"tensor": {"dtype": "DT_INT32", "tensorShape": {"dim": [{"size": "1"}]}}}}}, {"name": "StatefulPartitionedCall/sequential/conv1d_4/Conv1D/strided_slice/stack_1", "op": "Const", "attr": {"dtype": {"type": "DT_INT32"}, "value": {"tensor": {"dtype": "DT_INT32", "tensorShape": {"dim": [{"size": "1"}]}}}}}, {"name": "StatefulPartitionedCall/sequential/conv1d_4/Conv1D/strided_slice/stack_2", "op": "Const", "attr": {"dtype": {"type": "DT_INT32"}, "value": {"tensor": {"dtype": "DT_INT32", "tensorShape": {"dim": [{"size": "1"}]}}}}}, {"name": "StatefulPartitionedCall/sequential/conv1d_4/Conv1D/required_space_to_batch_paddings/add", "op": "Const", "attr": {"dtype": {"type": "DT_INT32"}, "value": {"tensor": {"dtype": "DT_INT32", "tensorShape": {"dim": [{"size": "1"}]}}}}}, {"name": "StatefulPartitionedCall/sequential/conv1d_4/Conv1D/dilation_rate", "op": "Const", "attr": {"value": {"tensor": {"dtype": "DT_INT32", "tensorShape": {"dim": [{"size": "1"}]}}}, "dtype": {"type": "DT_INT32"}}}, {"name": "StatefulPartitionedCall/sequential/conv1d_4/Conv1D/required_space_to_batch_paddings/strided_slice_4/stack", "op": "Const", "attr": {"value": {"tensor": {"dtype": "DT_INT32", "tensorShape": {"dim": [{"size": "1"}]}}}, "dtype": {"type": "DT_INT32"}}}, {"name": "StatefulPartitionedCall/sequential/conv1d_4/Conv1D/required_space_to_batch_paddings/strided_slice_4/stack_1", "op": "Const", "attr": {"value": {"tensor": {"dtype": "DT_INT32", "tensorShape": {"dim": [{"size": "1"}]}}}, "dtype": {"type": "DT_INT32"}}}, {"name": "StatefulPartitionedCall/sequential/conv1d_4/Conv1D/required_space_to_batch_paddings/strided_slice_4/stack_2", "op": "Const", "attr": {"dtype": {"type": "DT_INT32"}, "value": {"tensor": {"dtype": "DT_INT32", "tensorShape": {"dim": [{"size": "1"}]}}}}}, {"name": "StatefulPartitionedCall/sequential/conv1d_4/BiasAdd/ReadVariableOp", "op": "Const", "attr": {"dtype": {"type": "DT_FLOAT"}, "value": {"tensor": {"dtype": "DT_FLOAT", "tensorShape": {"dim": [{"size": "128"}]}}}}}, {"name": "StatefulPartitionedCall/sequential/batch_normalization_3/batchnorm/mul", "op": "Const", "attr": {"dtype": {"type": "DT_FLOAT"}, "value": {"tensor": {"dtype": "DT_FLOAT", "tensorShape": {"dim": [{"size": "128"}]}}}}}, {"name": "StatefulPartitionedCall/sequential/batch_normalization_3/batchnorm/sub", "op": "Const", "attr": {"dtype": {"type": "DT_FLOAT"}, "value": {"tensor": {"dtype": "DT_FLOAT", "tensorShape": {"dim": [{"size": "128"}]}}}}}, {"name": "StatefulPartitionedCall/sequential/conv1d_5/Conv1D/ExpandDims/dim", "op": "Const", "attr": {"value": {"tensor": {"dtype": "DT_INT32", "tensorShape": {}}}, "dtype": {"type": "DT_INT32"}}}, {"name": "StatefulPartitionedCall/sequential/conv1d_5/Conv1D/ExpandDims_1", "op": "Const", "attr": {"value": {"tensor": {"dtype": "DT_FLOAT", "tensorShape": {"dim": [{"size": "1"}, {"size": "1"}, {"size": "128"}, {"size": "128"}]}}}, "dtype": {"type": "DT_FLOAT"}}}, {"name": "StatefulPartitionedCall/sequential/conv1d_5/BiasAdd/ReadVariableOp", "op": "Const", "attr": {"dtype": {"type": "DT_FLOAT"}, "value": {"tensor": {"dtype": "DT_FLOAT", "tensorShape": {"dim": [{"size": "128"}]}}}}}, {"name": "StatefulPartitionedCall/sequential/max_pooling1d_1/ExpandDims/dim", "op": "Const", "attr": {"dtype": {"type": "DT_INT32"}, "value": {"tensor": {"dtype": "DT_INT32", "tensorShape": {}}}}}, {"name": "StatefulPartitionedCall/sequential/bidirectional/backward_lstm/PartitionedCall/transpose/perm", "op": "Const", "attr": {"dtype": {"type": "DT_INT32"}, "value": {"tensor": {"dtype": "DT_INT32", "tensorShape": {"dim": [{"size": "3"}]}}}}}, {"name": "StatefulPartitionedCall/sequential/bidirectional/backward_lstm/PartitionedCall/strided_slice/stack", "op": "Const", "attr": {"value": {"tensor": {"dtype": "DT_INT32", "tensorShape": {"dim": [{"size": "1"}]}}}, "dtype": {"type": "DT_INT32"}}}, {"name": "StatefulPartitionedCall/sequential/bidirectional/backward_lstm/PartitionedCall/strided_slice/stack_1", "op": "Const", "attr": {"value": {"tensor": {"dtype": "DT_INT32", "tensorShape": {"dim": [{"size": "1"}]}}}, "dtype": {"type": "DT_INT32"}}}, {"name": "StatefulPartitionedCall/sequential/bidirectional/backward_lstm/PartitionedCall/strided_slice/stack_2", "op": "Const", "attr": {"value": {"tensor": {"dtype": "DT_INT32", "tensorShape": {"dim": [{"size": "1"}]}}}, "dtype": {"type": "DT_INT32"}}}, {"name": "StatefulPartitionedCall/sequential/bidirectional/backward_lstm/PartitionedCall/while/loop_counter", "op": "Const", "attr": {"value": {"tensor": {"dtype": "DT_INT32", "tensorShape": {}}}, "dtype": {"type": "DT_INT32"}}}, {"name": "StatefulPartitionedCall/sequential/bidirectional/backward_lstm/PartitionedCall/TensorArrayV2Stack/TensorListStack/element_shape", "op": "Const", "attr": {"dtype": {"type": "DT_INT32"}, "value": {"tensor": {"dtype": "DT_INT32", "tensorShape": {"dim": [{"size": "2"}]}}}}}, {"name": "StatefulPartitionedCall/sequential/bidirectional/backward_lstm/PartitionedCall/transpose_1/perm", "op": "Const", "attr": {"value": {"tensor": {"dtype": "DT_INT32", "tensorShape": {"dim": [{"size": "3"}]}}}, "dtype": {"type": "DT_INT32"}}}, {"name": "StatefulPartitionedCall/sequential/bidirectional/ReverseV2/axis", "op": "Const", "attr": {"value": {"tensor": {"dtype": "DT_INT32", "tensorShape": {"dim": [{"size": "1"}]}}}, "dtype": {"type": "DT_INT32"}}}, {"name": "StatefulPartitionedCall/sequential/bidirectional/concat/axis", "op": "Const", "attr": {"value": {"tensor": {"dtype": "DT_INT32", "tensorShape": {}}}, "dtype": {"type": "DT_INT32"}}}, {"name": "StatefulPartitionedCall/sequential/bidirectional_1/backward_lstm_1/PartitionedCall/transpose/perm", "op": "Const", "attr": {"dtype": {"type": "DT_INT32"}, "value": {"tensor": {"dtype": "DT_INT32", "tensorShape": {"dim": [{"size": "3"}]}}}}}, {"name": "StatefulPartitionedCall/sequential/bidirectional_1/backward_lstm_1/PartitionedCall/strided_slice/stack", "op": "Const", "attr": {"value": {"tensor": {"dtype": "DT_INT32", "tensorShape": {"dim": [{"size": "1"}]}}}, "dtype": {"type": "DT_INT32"}}}, {"name": "StatefulPartitionedCall/sequential/bidirectional_1/backward_lstm_1/PartitionedCall/strided_slice/stack_1", "op": "Const", "attr": {"value": {"tensor": {"dtype": "DT_INT32", "tensorShape": {"dim": [{"size": "1"}]}}}, "dtype": {"type": "DT_INT32"}}}, {"name": "StatefulPartitionedCall/sequential/bidirectional_1/backward_lstm_1/PartitionedCall/strided_slice/stack_2", "op": "Const", "attr": {"value": {"tensor": {"dtype": "DT_INT32", "tensorShape": {"dim": [{"size": "1"}]}}}, "dtype": {"type": "DT_INT32"}}}, {"name": "StatefulPartitionedCall/sequential/bidirectional_1/backward_lstm_1/PartitionedCall/while/loop_counter", "op": "Const", "attr": {"value": {"tensor": {"dtype": "DT_INT32", "tensorShape": {}}}, "dtype": {"type": "DT_INT32"}}}, {"name": "StatefulPartitionedCall/sequential/bidirectional_1/backward_lstm_1/PartitionedCall/TensorArrayV2Stack/TensorListStack/element_shape", "op": "Const", "attr": {"dtype": {"type": "DT_INT32"}, "value": {"tensor": {"dtype": "DT_INT32", "tensorShape": {"dim": [{"size": "2"}]}}}}}, {"name": "StatefulPartitionedCall/sequential/bidirectional_1/backward_lstm_1/PartitionedCall/strided_slice_2/stack", "op": "Const", "attr": {"dtype": {"type": "DT_INT32"}, "value": {"tensor": {"dtype": "DT_INT32", "tensorShape": {"dim": [{"size": "1"}]}}}}}, {"name": "StatefulPartitionedCall/sequential/bidirectional_1/backward_lstm_1/PartitionedCall/strided_slice_2/stack_1", "op": "Const", "attr": {"dtype": {"type": "DT_INT32"}, "value": {"tensor": {"dtype": "DT_INT32", "tensorShape": {"dim": [{"size": "1"}]}}}}}, {"name": "StatefulPartitionedCall/sequential/bidirectional_1/backward_lstm_1/PartitionedCall/strided_slice_2/stack_2", "op": "Const", "attr": {"dtype": {"type": "DT_INT32"}, "value": {"tensor": {"dtype": "DT_INT32", "tensorShape": {"dim": [{"size": "1"}]}}}}}, {"name": "StatefulPartitionedCall/sequential/bidirectional_1/concat/axis", "op": "Const", "attr": {"value": {"tensor": {"dtype": "DT_INT32", "tensorShape": {}}}, "dtype": {"type": "DT_INT32"}}}, {"name": "StatefulPartitionedCall/sequential/dense/MatMul/ReadVariableOp", "op": "Const", "attr": {"value": {"tensor": {"dtype": "DT_FLOAT", "tensorShape": {"dim": [{"size": "256"}, {"size": "256"}]}}}, "dtype": {"type": "DT_FLOAT"}}}, {"name": "StatefulPartitionedCall/sequential/dense/BiasAdd/ReadVariableOp", "op": "Const", "attr": {"dtype": {"type": "DT_FLOAT"}, "value": {"tensor": {"dtype": "DT_FLOAT", "tensorShape": {"dim": [{"size": "256"}]}}}}}, {"name": "StatefulPartitionedCall/sequential/dense_1/MatMul/ReadVariableOp", "op": "Const", "attr": {"value": {"tensor": {"dtype": "DT_FLOAT", "tensorShape": {"dim": [{"size": "256"}, {"size": "1"}]}}}, "dtype": {"type": "DT_FLOAT"}}}, {"name": "StatefulPartitionedCall/sequential/dense_1/BiasAdd/ReadVariableOp", "op": "Const", "attr": {"dtype": {"type": "DT_FLOAT"}, "value": {"tensor": {"dtype": "DT_FLOAT", "tensorShape": {"dim": [{"size": "1"}]}}}}}, {"name": "input_1", "op": "Placeholder", "attr": {"dtype": {"type": "DT_FLOAT"}, "shape": {"shape": {"dim": [{"size": "-1"}, {"size": "-1"}, {"size": "32"}]}}}}, {"name": "StatefulPartitionedCall/sequential/bidirectional_1/forward_lstm_1/PartitionedCall/TensorArrayV2_1", "op": "TensorListReserve", "input": ["StatefulPartitionedCall/sequential/bidirectional_1/forward_lstm_1/PartitionedCall/TensorArrayV2_1/element_shape", "StatefulPartitionedCall/sequential/bidirectional_1/forward_lstm_1/PartitionedCall/TensorArrayV2_1/num_elements"], "attr": {"element_dtype": {"type": "DT_FLOAT"}, "shape_type": {"type": "DT_INT32"}}, "experimentalType": {"typeId": "TFT_PRODUCT", "args": [{"typeId": "TFT_ARRAY", "args": [{"typeId": "TFT_TENSOR", "args": [{"typeId": "TFT_FLOAT"}]}]}]}}, {"name": "StatefulPartitionedCall/sequential/bidirectional_1/forward_lstm_1/PartitionedCall/while/enter/_221", "op": "Enter", "input": ["StatefulPartitionedCall/sequential/bidirectional_1/forward_lstm_1/Read/ReadVariableOp"], "attr": {"parallel_iterations": {"i": "32"}, "is_constant": {"b": false}, "frame_name": {"s": "U3RhdGVmdWxQYXJ0aXRpb25lZENhbGwvc2VxdWVudGlhbC9iaWRpcmVjdGlvbmFsXzEvZm9yd2FyZF9sc3RtXzEvUGFydGl0aW9uZWRDYWxsL3doaWxl"}, "T": {"type": "DT_FLOAT"}}}, {"name": "StatefulPartitionedCall/sequential/bidirectional_1/forward_lstm_1/PartitionedCall/while/enter/_222", "op": "Enter", "input": ["StatefulPartitionedCall/sequential/bidirectional_1/forward_lstm_1/Read_1/ReadVariableOp"], "attr": {"parallel_iterations": {"i": "32"}, "T": {"type": "DT_FLOAT"}, "frame_name": {"s": "U3RhdGVmdWxQYXJ0aXRpb25lZENhbGwvc2VxdWVudGlhbC9iaWRpcmVjdGlvbmFsXzEvZm9yd2FyZF9sc3RtXzEvUGFydGl0aW9uZWRDYWxsL3doaWxl"}, "is_constant": {"b": false}}}, {"name": "StatefulPartitionedCall/sequential/bidirectional_1/forward_lstm_1/PartitionedCall/while/enter/_223", "op": "Enter", "input": ["StatefulPartitionedCall/sequential/bidirectional_1/forward_lstm_1/Read_2/ReadVariableOp"], "attr": {"frame_name": {"s": "U3RhdGVmdWxQYXJ0aXRpb25lZENhbGwvc2VxdWVudGlhbC9iaWRpcmVjdGlvbmFsXzEvZm9yd2FyZF9sc3RtXzEvUGFydGl0aW9uZWRDYWxsL3doaWxl"}, "is_constant": {"b": false}, "parallel_iterations": {"i": "32"}, "T": {"type": "DT_FLOAT"}}}, {"name": "StatefulPartitionedCall/sequential/bidirectional_1/forward_lstm_1/PartitionedCall/while/enter/_215", "op": "Enter", "input": ["StatefulPartitionedCall/sequential/bidirectional_1/forward_lstm_1/PartitionedCall/time"], "attr": {"frame_name": {"s": "U3RhdGVmdWxQYXJ0aXRpb25lZENhbGwvc2VxdWVudGlhbC9iaWRpcmVjdGlvbmFsXzEvZm9yd2FyZF9sc3RtXzEvUGFydGl0aW9uZWRDYWxsL3doaWxl"}, "is_constant": {"b": false}, "T": {"type": "DT_INT32"}, "parallel_iterations": {"i": "32"}}}, {"name": "StatefulPartitionedCall/sequential/bidirectional_1/forward_lstm_1/PartitionedCall/while/enter/_213", "op": "Enter", "input": ["StatefulPartitionedCall/sequential/bidirectional_1/forward_lstm_1/PartitionedCall/while/loop_counter"], "attr": {"parallel_iterations": {"i": "32"}, "is_constant": {"b": false}, "T": {"type": "DT_INT32"}, "frame_name": {"s": "U3RhdGVmdWxQYXJ0aXRpb25lZENhbGwvc2VxdWVudGlhbC9iaWRpcmVjdGlvbmFsXzEvZm9yd2FyZF9sc3RtXzEvUGFydGl0aW9uZWRDYWxsL3doaWxl"}}}, {"name": "StatefulPartitionedCall/sequential/bidirectional_1/backward_lstm_1/PartitionedCall/TensorArrayV2_1", "op": "TensorListReserve", "input": ["StatefulPartitionedCall/sequential/bidirectional_1/backward_lstm_1/PartitionedCall/TensorArrayV2_1/element_shape", "StatefulPartitionedCall/sequential/bidirectional_1/backward_lstm_1/PartitionedCall/TensorArrayV2_1/num_elements"], "attr": {"element_dtype": {"type": "DT_FLOAT"}, "shape_type": {"type": "DT_INT32"}}, "experimentalType": {"typeId": "TFT_PRODUCT", "args": [{"typeId": "TFT_ARRAY", "args": [{"typeId": "TFT_TENSOR", "args": [{"typeId": "TFT_FLOAT"}]}]}]}}, {"name": "StatefulPartitionedCall/sequential/bidirectional_1/backward_lstm_1/PartitionedCall/while/enter/_281", "op": "Enter", "input": ["StatefulPartitionedCall/sequential/bidirectional_1/backward_lstm_1/Read/ReadVariableOp"], "attr": {"frame_name": {"s": "U3RhdGVmdWxQYXJ0aXRpb25lZENhbGwvc2VxdWVudGlhbC9iaWRpcmVjdGlvbmFsXzEvYmFja3dhcmRfbHN0bV8xL1BhcnRpdGlvbmVkQ2FsbC93aGlsZQ=="}, "is_constant": {"b": false}, "T": {"type": "DT_FLOAT"}, "parallel_iterations": {"i": "32"}}}, {"name": "StatefulPartitionedCall/sequential/bidirectional_1/backward_lstm_1/PartitionedCall/while/enter/_282", "op": "Enter", "input": ["StatefulPartitionedCall/sequential/bidirectional_1/backward_lstm_1/Read_1/ReadVariableOp"], "attr": {"parallel_iterations": {"i": "32"}, "is_constant": {"b": false}, "frame_name": {"s": "U3RhdGVmdWxQYXJ0aXRpb25lZENhbGwvc2VxdWVudGlhbC9iaWRpcmVjdGlvbmFsXzEvYmFja3dhcmRfbHN0bV8xL1BhcnRpdGlvbmVkQ2FsbC93aGlsZQ=="}, "T": {"type": "DT_FLOAT"}}}, {"name": "StatefulPartitionedCall/sequential/bidirectional_1/backward_lstm_1/PartitionedCall/while/enter/_283", "op": "Enter", "input": ["StatefulPartitionedCall/sequential/bidirectional_1/backward_lstm_1/Read_2/ReadVariableOp"], "attr": {"T": {"type": "DT_FLOAT"}, "frame_name": {"s": "U3RhdGVmdWxQYXJ0aXRpb25lZENhbGwvc2VxdWVudGlhbC9iaWRpcmVjdGlvbmFsXzEvYmFja3dhcmRfbHN0bV8xL1BhcnRpdGlvbmVkQ2FsbC93aGlsZQ=="}, "is_constant": {"b": false}, "parallel_iterations": {"i": "32"}}}, {"name": "StatefulPartitionedCall/sequential/bidirectional_1/backward_lstm_1/PartitionedCall/while/enter/_275", "op": "Enter", "input": ["StatefulPartitionedCall/sequential/bidirectional_1/backward_lstm_1/PartitionedCall/time"], "attr": {"T": {"type": "DT_INT32"}, "frame_name": {"s": "U3RhdGVmdWxQYXJ0aXRpb25lZENhbGwvc2VxdWVudGlhbC9iaWRpcmVjdGlvbmFsXzEvYmFja3dhcmRfbHN0bV8xL1BhcnRpdGlvbmVkQ2FsbC93aGlsZQ=="}, "parallel_iterations": {"i": "32"}, "is_constant": {"b": false}}}, {"name": "StatefulPartitionedCall/sequential/bidirectional/forward_lstm/PartitionedCall/while/enter/_101", "op": "Enter", "input": ["StatefulPartitionedCall/sequential/bidirectional/forward_lstm/Read/ReadVariableOp"], "attr": {"frame_name": {"s": "U3RhdGVmdWxQYXJ0aXRpb25lZENhbGwvc2VxdWVudGlhbC9iaWRpcmVjdGlvbmFsL2ZvcndhcmRfbHN0bS9QYXJ0aXRpb25lZENhbGwvd2hpbGU="}, "is_constant": {"b": false}, "T": {"type": "DT_FLOAT"}, "parallel_iterations": {"i": "32"}}}, {"name": "StatefulPartitionedCall/sequential/bidirectional/forward_lstm/PartitionedCall/while/enter/_102", "op": "Enter", "input": ["StatefulPartitionedCall/sequential/bidirectional/forward_lstm/Read_1/ReadVariableOp"], "attr": {"parallel_iterations": {"i": "32"}, "frame_name": {"s": "U3RhdGVmdWxQYXJ0aXRpb25lZENhbGwvc2VxdWVudGlhbC9iaWRpcmVjdGlvbmFsL2ZvcndhcmRfbHN0bS9QYXJ0aXRpb25lZENhbGwvd2hpbGU="}, "T": {"type": "DT_FLOAT"}, "is_constant": {"b": false}}}, {"name": "StatefulPartitionedCall/sequential/bidirectional/forward_lstm/PartitionedCall/while/enter/_103", "op": "Enter", "input": ["StatefulPartitionedCall/sequential/bidirectional/forward_lstm/Read_2/ReadVariableOp"], "attr": {"parallel_iterations": {"i": "32"}, "T": {"type": "DT_FLOAT"}, "frame_name": {"s": "U3RhdGVmdWxQYXJ0aXRpb25lZENhbGwvc2VxdWVudGlhbC9iaWRpcmVjdGlvbmFsL2ZvcndhcmRfbHN0bS9QYXJ0aXRpb25lZENhbGwvd2hpbGU="}, "is_constant": {"b": false}}}, {"name": "StatefulPartitionedCall/sequential/bidirectional/forward_lstm/PartitionedCall/while/enter/_95", "op": "Enter", "input": ["StatefulPartitionedCall/sequential/bidirectional/forward_lstm/PartitionedCall/time"], "attr": {"is_constant": {"b": false}, "T": {"type": "DT_INT32"}, "frame_name": {"s": "U3RhdGVmdWxQYXJ0aXRpb25lZENhbGwvc2VxdWVudGlhbC9iaWRpcmVjdGlvbmFsL2ZvcndhcmRfbHN0bS9QYXJ0aXRpb25lZENhbGwvd2hpbGU="}, "parallel_iterations": {"i": "32"}}}, {"name": "StatefulPartitionedCall/sequential/bidirectional/forward_lstm/PartitionedCall/while/enter/_93", "op": "Enter", "input": ["StatefulPartitionedCall/sequential/bidirectional/forward_lstm/PartitionedCall/while/loop_counter"], "attr": {"parallel_iterations": {"i": "32"}, "is_constant": {"b": false}, "frame_name": {"s": "U3RhdGVmdWxQYXJ0aXRpb25lZENhbGwvc2VxdWVudGlhbC9iaWRpcmVjdGlvbmFsL2ZvcndhcmRfbHN0bS9QYXJ0aXRpb25lZENhbGwvd2hpbGU="}, "T": {"type": "DT_INT32"}}}, {"name": "StatefulPartitionedCall/sequential/bidirectional/backward_lstm/PartitionedCall/while/enter/_161", "op": "Enter", "input": ["StatefulPartitionedCall/sequential/bidirectional/backward_lstm/Read/ReadVariableOp"], "attr": {"is_constant": {"b": false}, "T": {"type": "DT_FLOAT"}, "parallel_iterations": {"i": "32"}, "frame_name": {"s": "U3RhdGVmdWxQYXJ0aXRpb25lZENhbGwvc2VxdWVudGlhbC9iaWRpcmVjdGlvbmFsL2JhY2t3YXJkX2xzdG0vUGFydGl0aW9uZWRDYWxsL3doaWxl"}}}, {"name": "StatefulPartitionedCall/sequential/bidirectional/backward_lstm/PartitionedCall/while/enter/_162", "op": "Enter", "input": ["StatefulPartitionedCall/sequential/bidirectional/backward_lstm/Read_1/ReadVariableOp"], "attr": {"parallel_iterations": {"i": "32"}, "is_constant": {"b": false}, "frame_name": {"s": "U3RhdGVmdWxQYXJ0aXRpb25lZENhbGwvc2VxdWVudGlhbC9iaWRpcmVjdGlvbmFsL2JhY2t3YXJkX2xzdG0vUGFydGl0aW9uZWRDYWxsL3doaWxl"}, "T": {"type": "DT_FLOAT"}}}, {"name": "StatefulPartitionedCall/sequential/bidirectional/backward_lstm/PartitionedCall/while/enter/_163", "op": "Enter", "input": ["StatefulPartitionedCall/sequential/bidirectional/backward_lstm/Read_2/ReadVariableOp"], "attr": {"frame_name": {"s": "U3RhdGVmdWxQYXJ0aXRpb25lZENhbGwvc2VxdWVudGlhbC9iaWRpcmVjdGlvbmFsL2JhY2t3YXJkX2xzdG0vUGFydGl0aW9uZWRDYWxsL3doaWxl"}, "is_constant": {"b": false}, "T": {"type": "DT_FLOAT"}, "parallel_iterations": {"i": "32"}}}, {"name": "StatefulPartitionedCall/sequential/bidirectional/backward_lstm/PartitionedCall/while/enter/_155", "op": "Enter", "input": ["StatefulPartitionedCall/sequential/bidirectional/backward_lstm/PartitionedCall/time"], "attr": {"frame_name": {"s": "U3RhdGVmdWxQYXJ0aXRpb25lZENhbGwvc2VxdWVudGlhbC9iaWRpcmVjdGlvbmFsL2JhY2t3YXJkX2xzdG0vUGFydGl0aW9uZWRDYWxsL3doaWxl"}, "parallel_iterations": {"i": "32"}, "T": {"type": "DT_INT32"}, "is_constant": {"b": false}}}, {"name": "StatefulPartitionedCall/sequential/bidirectional/backward_lstm/PartitionedCall/while/enter/_153", "op": "Enter", "input": ["StatefulPartitionedCall/sequential/bidirectional/backward_lstm/PartitionedCall/while/loop_counter"], "attr": {"frame_name": {"s": "U3RhdGVmdWxQYXJ0aXRpb25lZENhbGwvc2VxdWVudGlhbC9iaWRpcmVjdGlvbmFsL2JhY2t3YXJkX2xzdG0vUGFydGl0aW9uZWRDYWxsL3doaWxl"}, "is_constant": {"b": false}, "T": {"type": "DT_INT32"}, "parallel_iterations": {"i": "32"}}}, {"name": "StatefulPartitionedCall/sequential/bidirectional_1/backward_lstm_1/PartitionedCall/while/enter/_273", "op": "Enter", "input": ["StatefulPartitionedCall/sequential/bidirectional_1/backward_lstm_1/PartitionedCall/while/loop_counter"], "attr": {"T": {"type": "DT_INT32"}, "is_constant": {"b": false}, "parallel_iterations": {"i": "32"}, "frame_name": {"s": "U3RhdGVmdWxQYXJ0aXRpb25lZENhbGwvc2VxdWVudGlhbC9iaWRpcmVjdGlvbmFsXzEvYmFja3dhcmRfbHN0bV8xL1BhcnRpdGlvbmVkQ2FsbC93aGlsZQ=="}}}, {"name": "StatefulPartitionedCall/sequential/conv1d/Conv1D/Shape", "op": "Shape", "input": ["input_1"], "attr": {"T": {"type": "DT_FLOAT"}, "out_type": {"type": "DT_INT32"}}, "experimentalType": {"typeId": "TFT_PRODUCT", "args": [{"typeId": "TFT_SHAPE_TENSOR", "args": [{"typeId": "TFT_INT32"}]}]}}, {"name": "StatefulPartitionedCall/sequential/bidirectional_1/forward_lstm_1/PartitionedCall/while/enter/_216", "op": "Enter", "input": ["StatefulPartitionedCall/sequential/bidirectional_1/forward_lstm_1/PartitionedCall/TensorArrayV2_1"], "attr": {"parallel_iterations": {"i": "32"}, "T": {"type": "DT_VARIANT"}, "is_constant": {"b": false}, "frame_name": {"s": "U3RhdGVmdWxQYXJ0aXRpb25lZENhbGwvc2VxdWVudGlhbC9iaWRpcmVjdGlvbmFsXzEvZm9yd2FyZF9sc3RtXzEvUGFydGl0aW9uZWRDYWxsL3doaWxl"}}}, {"name": "StatefulPartitionedCall/sequential/bidirectional_1/forward_lstm_1/PartitionedCall/while/merge/_232", "op": "Merge", "input": ["StatefulPartitionedCall/sequential/bidirectional_1/forward_lstm_1/PartitionedCall/while/enter/_221", "StatefulPartitionedCall/sequential/bidirectional_1/forward_lstm_1/PartitionedCall/while/next_iteration/_268"], "attr": {"N": {"i": "2"}, "T": {"type": "DT_FLOAT"}}}, {"name": "StatefulPartitionedCall/sequential/bidirectional_1/forward_lstm_1/PartitionedCall/while/merge/_233", "op": "Merge", "input": ["StatefulPartitionedCall/sequential/bidirectional_1/forward_lstm_1/PartitionedCall/while/enter/_222", "StatefulPartitionedCall/sequential/bidirectional_1/forward_lstm_1/PartitionedCall/while/next_iteration/_269"], "attr": {"N": {"i": "2"}, "T": {"type": "DT_FLOAT"}}}, {"name": "StatefulPartitionedCall/sequential/bidirectional_1/forward_lstm_1/PartitionedCall/while/merge/_234", "op": "Merge", "input": ["StatefulPartitionedCall/sequential/bidirectional_1/forward_lstm_1/PartitionedCall/while/enter/_223", "StatefulPartitionedCall/sequential/bidirectional_1/forward_lstm_1/PartitionedCall/while/next_iteration/_270"], "attr": {"T": {"type": "DT_FLOAT"}, "N": {"i": "2"}}}, {"name": "StatefulPartitionedCall/sequential/bidirectional_1/forward_lstm_1/PartitionedCall/while/merge/_226", "op": "Merge", "input": ["StatefulPartitionedCall/sequential/bidirectional_1/forward_lstm_1/PartitionedCall/while/enter/_215", "StatefulPartitionedCall/sequential/bidirectional_1/forward_lstm_1/PartitionedCall/while/next_iteration/_262"], "attr": {"T": {"type": "DT_INT32"}, "N": {"i": "2"}}}, {"name": "StatefulPartitionedCall/sequential/bidirectional_1/forward_lstm_1/PartitionedCall/while/merge/_224", "op": "Merge", "input": ["StatefulPartitionedCall/sequential/bidirectional_1/forward_lstm_1/PartitionedCall/while/enter/_213", "StatefulPartitionedCall/sequential/bidirectional_1/forward_lstm_1/PartitionedCall/while/next_iteration/_260"], "attr": {"N": {"i": "2"}, "_has_manual_control_dependencies": {"b": true}, "T": {"type": "DT_INT32"}}}, {"name": "StatefulPartitionedCall/sequential/bidirectional_1/backward_lstm_1/PartitionedCall/while/enter/_276", "op": "Enter", "input": ["StatefulPartitionedCall/sequential/bidirectional_1/backward_lstm_1/PartitionedCall/TensorArrayV2_1"], "attr": {"is_constant": {"b": false}, "parallel_iterations": {"i": "32"}, "T": {"type": "DT_VARIANT"}, "frame_name": {"s": "U3RhdGVmdWxQYXJ0aXRpb25lZENhbGwvc2VxdWVudGlhbC9iaWRpcmVjdGlvbmFsXzEvYmFja3dhcmRfbHN0bV8xL1BhcnRpdGlvbmVkQ2FsbC93aGlsZQ=="}}}, {"name": "StatefulPartitionedCall/sequential/bidirectional_1/backward_lstm_1/PartitionedCall/while/merge/_292", "op": "Merge", "input": ["StatefulPartitionedCall/sequential/bidirectional_1/backward_lstm_1/PartitionedCall/while/enter/_281", "StatefulPartitionedCall/sequential/bidirectional_1/backward_lstm_1/PartitionedCall/while/next_iteration/_328"], "attr": {"N": {"i": "2"}, "T": {"type": "DT_FLOAT"}}}, {"name": "StatefulPartitionedCall/sequential/bidirectional_1/backward_lstm_1/PartitionedCall/while/merge/_293", "op": "Merge", "input": ["StatefulPartitionedCall/sequential/bidirectional_1/backward_lstm_1/PartitionedCall/while/enter/_282", "StatefulPartitionedCall/sequential/bidirectional_1/backward_lstm_1/PartitionedCall/while/next_iteration/_329"], "attr": {"T": {"type": "DT_FLOAT"}, "N": {"i": "2"}}}, {"name": "StatefulPartitionedCall/sequential/bidirectional_1/backward_lstm_1/PartitionedCall/while/merge/_294", "op": "Merge", "input": ["StatefulPartitionedCall/sequential/bidirectional_1/backward_lstm_1/PartitionedCall/while/enter/_283", "StatefulPartitionedCall/sequential/bidirectional_1/backward_lstm_1/PartitionedCall/while/next_iteration/_330"], "attr": {"T": {"type": "DT_FLOAT"}, "N": {"i": "2"}}}, {"name": "StatefulPartitionedCall/sequential/bidirectional_1/backward_lstm_1/PartitionedCall/while/merge/_286", "op": "Merge", "input": ["StatefulPartitionedCall/sequential/bidirectional_1/backward_lstm_1/PartitionedCall/while/enter/_275", "StatefulPartitionedCall/sequential/bidirectional_1/backward_lstm_1/PartitionedCall/while/next_iteration/_322"], "attr": {"N": {"i": "2"}, "T": {"type": "DT_INT32"}}}, {"name": "StatefulPartitionedCall/sequential/bidirectional/forward_lstm/PartitionedCall/while/merge/_112", "op": "Merge", "input": ["StatefulPartitionedCall/sequential/bidirectional/forward_lstm/PartitionedCall/while/enter/_101", "StatefulPartitionedCall/sequential/bidirectional/forward_lstm/PartitionedCall/while/next_iteration/_148"], "attr": {"T": {"type": "DT_FLOAT"}, "N": {"i": "2"}}}, {"name": "StatefulPartitionedCall/sequential/bidirectional/forward_lstm/PartitionedCall/while/merge/_113", "op": "Merge", "input": ["StatefulPartitionedCall/sequential/bidirectional/forward_lstm/PartitionedCall/while/enter/_102", "StatefulPartitionedCall/sequential/bidirectional/forward_lstm/PartitionedCall/while/next_iteration/_149"], "attr": {"T": {"type": "DT_FLOAT"}, "N": {"i": "2"}}}, {"name": "StatefulPartitionedCall/sequential/bidirectional/forward_lstm/PartitionedCall/while/merge/_114", "op": "Merge", "input": ["StatefulPartitionedCall/sequential/bidirectional/forward_lstm/PartitionedCall/while/enter/_103", "StatefulPartitionedCall/sequential/bidirectional/forward_lstm/PartitionedCall/while/next_iteration/_150"], "attr": {"N": {"i": "2"}, "T": {"type": "DT_FLOAT"}}}, {"name": "StatefulPartitionedCall/sequential/bidirectional/forward_lstm/PartitionedCall/while/merge/_106", "op": "Merge", "input": ["StatefulPartitionedCall/sequential/bidirectional/forward_lstm/PartitionedCall/while/enter/_95", "StatefulPartitionedCall/sequential/bidirectional/forward_lstm/PartitionedCall/while/next_iteration/_142"], "attr": {"T": {"type": "DT_INT32"}, "N": {"i": "2"}}}, {"name": "StatefulPartitionedCall/sequential/bidirectional/forward_lstm/PartitionedCall/while/merge/_104", "op": "Merge", "input": ["StatefulPartitionedCall/sequential/bidirectional/forward_lstm/PartitionedCall/while/enter/_93", "StatefulPartitionedCall/sequential/bidirectional/forward_lstm/PartitionedCall/while/next_iteration/_140"], "attr": {"N": {"i": "2"}, "T": {"type": "DT_INT32"}}}, {"name": "StatefulPartitionedCall/sequential/bidirectional/backward_lstm/PartitionedCall/while/merge/_172", "op": "Merge", "input": ["StatefulPartitionedCall/sequential/bidirectional/backward_lstm/PartitionedCall/while/enter/_161", "StatefulPartitionedCall/sequential/bidirectional/backward_lstm/PartitionedCall/while/next_iteration/_208"], "attr": {"N": {"i": "2"}, "T": {"type": "DT_FLOAT"}}}, {"name": "StatefulPartitionedCall/sequential/bidirectional/backward_lstm/PartitionedCall/while/merge/_173", "op": "Merge", "input": ["StatefulPartitionedCall/sequential/bidirectional/backward_lstm/PartitionedCall/while/enter/_162", "StatefulPartitionedCall/sequential/bidirectional/backward_lstm/PartitionedCall/while/next_iteration/_209"], "attr": {"N": {"i": "2"}, "T": {"type": "DT_FLOAT"}}}, {"name": "StatefulPartitionedCall/sequential/bidirectional/backward_lstm/PartitionedCall/while/merge/_174", "op": "Merge", "input": ["StatefulPartitionedCall/sequential/bidirectional/backward_lstm/PartitionedCall/while/enter/_163", "StatefulPartitionedCall/sequential/bidirectional/backward_lstm/PartitionedCall/while/next_iteration/_210"], "attr": {"N": {"i": "2"}, "T": {"type": "DT_FLOAT"}}}, {"name": "StatefulPartitionedCall/sequential/bidirectional/backward_lstm/PartitionedCall/while/merge/_166", "op": "Merge", "input": ["StatefulPartitionedCall/sequential/bidirectional/backward_lstm/PartitionedCall/while/enter/_155", "StatefulPartitionedCall/sequential/bidirectional/backward_lstm/PartitionedCall/while/next_iteration/_202"], "attr": {"T": {"type": "DT_INT32"}, "N": {"i": "2"}}}, {"name": "StatefulPartitionedCall/sequential/bidirectional/backward_lstm/PartitionedCall/while/merge/_164", "op": "Merge", "input": ["StatefulPartitionedCall/sequential/bidirectional/backward_lstm/PartitionedCall/while/enter/_153", "StatefulPartitionedCall/sequential/bidirectional/backward_lstm/PartitionedCall/while/next_iteration/_200"], "attr": {"T": {"type": "DT_INT32"}, "N": {"i": "2"}}}, {"name": "StatefulPartitionedCall/sequential/bidirectional_1/backward_lstm_1/PartitionedCall/while/merge/_284", "op": "Merge", "input": ["StatefulPartitionedCall/sequential/bidirectional_1/backward_lstm_1/PartitionedCall/while/enter/_273", "StatefulPartitionedCall/sequential/bidirectional_1/backward_lstm_1/PartitionedCall/while/next_iteration/_320"], "attr": {"_has_manual_control_dependencies": {"b": true}, "T": {"type": "DT_INT32"}, "N": {"i": "2"}}}, {"name": "StatefulPartitionedCall/sequential/conv1d/Conv1D/strided_slice", "op": "StridedSlice", "input": ["StatefulPartitionedCall/sequential/conv1d/Conv1D/Shape", "StatefulPartitionedCall/sequential/conv1d/Conv1D/strided_slice/stack", "StatefulPartitionedCall/sequential/conv1d/Conv1D/strided_slice/stack_1", "StatefulPartitionedCall/sequential/conv1d/Conv1D/strided_slice/stack_2"], "attr": {"new_axis_mask": {"i": "0"}, "ellipsis_mask": {"i": "0"}, "shrink_axis_mask": {"i": "1"}, "T": {"type": "DT_INT32"}, "end_mask": {"i": "0"}, "Index": {"type": "DT_INT32"}, "begin_mask": {"i": "0"}}}, {"name": "StatefulPartitionedCall/sequential/bidirectional_1/forward_lstm_1/PartitionedCall/while/merge/_227", "op": "Merge", "input": ["StatefulPartitionedCall/sequential/bidirectional_1/forward_lstm_1/PartitionedCall/while/enter/_216", "StatefulPartitionedCall/sequential/bidirectional_1/forward_lstm_1/PartitionedCall/while/next_iteration/_263"], "attr": {"T": {"type": "DT_VARIANT"}, "N": {"i": "2"}}}, {"name": "StatefulPartitionedCall/sequential/bidirectional_1/backward_lstm_1/PartitionedCall/while/merge/_287", "op": "Merge", "input": ["StatefulPartitionedCall/sequential/bidirectional_1/backward_lstm_1/PartitionedCall/while/enter/_276", "StatefulPartitionedCall/sequential/bidirectional_1/backward_lstm_1/PartitionedCall/while/next_iteration/_323"], "attr": {"N": {"i": "2"}, "T": {"type": "DT_VARIANT"}}}, {"name": "ConstantFolding/StatefulPartitionedCall/sequential/conv1d/Conv1D/stack_1_const_axis", "op": "Const", "input": ["^StatefulPartitionedCall/sequential/conv1d/Conv1D/strided_slice"], "attr": {"value": {"tensor": {"dtype": "DT_INT32", "tensorShape": {}}}, "dtype": {"type": "DT_INT32"}}}, {"name": "StatefulPartitionedCall/sequential/conv1d/Conv1D/stack_1", "op": "ExpandDims", "input": ["StatefulPartitionedCall/sequential/conv1d/Conv1D/strided_slice", "ConstantFolding/StatefulPartitionedCall/sequential/conv1d/Conv1D/stack_1_const_axis"], "attr": {"Tdim": {"type": "DT_INT32"}, "T": {"type": "DT_INT32"}}}, {"name": "StatefulPartitionedCall/sequential/conv1d/Conv1D/required_space_to_batch_paddings/add_1", "op": "AddV2", "input": ["StatefulPartitionedCall/sequential/conv1d/Conv1D/stack_1", "StatefulPartitionedCall/sequential/conv1d/Conv1D/required_space_to_batch_paddings/add"], "attr": {"T": {"type": "DT_INT32"}}}, {"name": "StatefulPartitionedCall/sequential/conv1d/Conv1D/required_space_to_batch_paddings/mod", "op": "FloorMod", "input": ["StatefulPartitionedCall/sequential/conv1d/Conv1D/required_space_to_batch_paddings/add_1", "StatefulPartitionedCall/sequential/conv1d/Conv1D/dilation_rate"], "attr": {"T": {"type": "DT_INT32"}}}, {"name": "StatefulPartitionedCall/sequential/conv1d/Conv1D/required_space_to_batch_paddings/sub", "op": "Sub", "input": ["StatefulPartitionedCall/sequential/conv1d/Conv1D/dilation_rate", "StatefulPartitionedCall/sequential/conv1d/Conv1D/required_space_to_batch_paddings/mod"], "attr": {"T": {"type": "DT_INT32"}}}, {"name": "StatefulPartitionedCall/sequential/conv1d/Conv1D/required_space_to_batch_paddings/mod_1", "op": "FloorMod", "input": ["StatefulPartitionedCall/sequential/conv1d/Conv1D/required_space_to_batch_paddings/sub", "StatefulPartitionedCall/sequential/conv1d/Conv1D/dilation_rate"], "attr": {"T": {"type": "DT_INT32"}}}, {"name": "StatefulPartitionedCall/sequential/conv1d/Conv1D/required_space_to_batch_paddings/add_2", "op": "AddV2", "input": ["StatefulPartitionedCall/sequential/conv1d/Conv1D/required_space_to_batch_paddings/strided_slice_1", "StatefulPartitionedCall/sequential/conv1d/Conv1D/required_space_to_batch_paddings/mod_1"], "attr": {"T": {"type": "DT_INT32"}}}, {"name": "StatefulPartitionedCall/sequential/conv1d/Conv1D/required_space_to_batch_paddings/strided_slice_4", "op": "StridedSlice", "input": ["StatefulPartitionedCall/sequential/conv1d/Conv1D/required_space_to_batch_paddings/mod_1", "StatefulPartitionedCall/sequential/conv1d/Conv1D/required_space_to_batch_paddings/strided_slice_4/stack", "StatefulPartitionedCall/sequential/conv1d/Conv1D/required_space_to_batch_paddings/strided_slice_4/stack_1", "StatefulPartitionedCall/sequential/conv1d/Conv1D/required_space_to_batch_paddings/strided_slice_4/stack_2"], "attr": {"begin_mask": {"i": "0"}, "Index": {"type": "DT_INT32"}, "shrink_axis_mask": {"i": "1"}, "T": {"type": "DT_INT32"}, "ellipsis_mask": {"i": "0"}, "end_mask": {"i": "0"}, "new_axis_mask": {"i": "0"}}}, {"name": "StatefulPartitionedCall/sequential/conv1d/Conv1D/required_space_to_batch_paddings/strided_slice_3", "op": "StridedSlice", "input": ["StatefulPartitionedCall/sequential/conv1d/Conv1D/required_space_to_batch_paddings/add_2", "StatefulPartitionedCall/sequential/conv1d/Conv1D/required_space_to_batch_paddings/strided_slice_3/stack", "StatefulPartitionedCall/sequential/conv1d/Conv1D/required_space_to_batch_paddings/strided_slice_3/stack_1", "StatefulPartitionedCall/sequential/conv1d/Conv1D/required_space_to_batch_paddings/strided_slice_3/stack_2"], "attr": {"new_axis_mask": {"i": "0"}, "shrink_axis_mask": {"i": "1"}, "begin_mask": {"i": "0"}, "T": {"type": "DT_INT32"}, "end_mask": {"i": "0"}, "ellipsis_mask": {"i": "0"}, "Index": {"type": "DT_INT32"}}}, {"name": "StatefulPartitionedCall/sequential/conv1d/Conv1D/required_space_to_batch_paddings/crops/0", "op": "Pack", "input": ["StatefulPartitionedCall/sequential/conv1d/Conv1D/required_space_to_batch_paddings/crops/0/0", "StatefulPartitionedCall/sequential/conv1d/Conv1D/required_space_to_batch_paddings/strided_slice_4"], "attr": {"T": {"type": "DT_INT32"}, "N": {"i": "2"}, "axis": {"i": "0"}}}, {"name": "StatefulPartitionedCall/sequential/conv1d/Conv1D/required_space_to_batch_paddings/paddings/0", "op": "Pack", "input": ["StatefulPartitionedCall/sequential/conv1d/Conv1D/required_space_to_batch_paddings/strided_slice_2", "StatefulPartitionedCall/sequential/conv1d/Conv1D/required_space_to_batch_paddings/strided_slice_3"], "attr": {"N": {"i": "2"}, "axis": {"i": "0"}, "T": {"type": "DT_INT32"}}}, {"name": "ConstantFolding/StatefulPartitionedCall/sequential/conv1d/Conv1D/required_space_to_batch_paddings/crops_const_axis", "op": "Const", "input": ["^StatefulPartitionedCall/sequential/conv1d/Conv1D/required_space_to_batch_paddings/crops/0"], "attr": {"value": {"tensor": {"dtype": "DT_INT32", "tensorShape": {}}}, "dtype": {"type": "DT_INT32"}}}, {"name": "ConstantFolding/StatefulPartitionedCall/sequential/conv1d/Conv1D/required_space_to_batch_paddings/paddings_const_axis", "op": "Const", "input": ["^StatefulPartitionedCall/sequential/conv1d/Conv1D/required_space_to_batch_paddings/paddings/0"], "attr": {"dtype": {"type": "DT_INT32"}, "value": {"tensor": {"dtype": "DT_INT32", "tensorShape": {}}}}}, {"name": "StatefulPartitionedCall/sequential/conv1d/Conv1D/required_space_to_batch_paddings/crops", "op": "ExpandDims", "input": ["StatefulPartitionedCall/sequential/conv1d/Conv1D/required_space_to_batch_paddings/crops/0", "ConstantFolding/StatefulPartitionedCall/sequential/conv1d/Conv1D/required_space_to_batch_paddings/crops_const_axis"], "attr": {"Tdim": {"type": "DT_INT32"}, "T": {"type": "DT_INT32"}}}, {"name": "StatefulPartitionedCall/sequential/conv1d/Conv1D/required_space_to_batch_paddings/paddings", "op": "ExpandDims", "input": ["StatefulPartitionedCall/sequential/conv1d/Conv1D/required_space_to_batch_paddings/paddings/0", "ConstantFolding/StatefulPartitionedCall/sequential/conv1d/Conv1D/required_space_to_batch_paddings/paddings_const_axis"], "attr": {"T": {"type": "DT_INT32"}, "Tdim": {"type": "DT_INT32"}}}, {"name": "StatefulPartitionedCall/sequential/conv1d/Conv1D/SpaceToBatchND", "op": "SpaceToBatchND", "input": ["input_1", "StatefulPartitionedCall/sequential/conv1d/Conv1D/SpaceToBatchND/block_shape", "StatefulPartitionedCall/sequential/conv1d/Conv1D/required_space_to_batch_paddings/paddings"], "attr": {"Tblock_shape": {"type": "DT_INT32"}, "T": {"type": "DT_FLOAT"}, "Tpaddings": {"type": "DT_INT32"}}}, {"name": "StatefulPartitionedCall/sequential/conv1d/Conv1D/ExpandDims", "op": "ExpandDims", "input": ["StatefulPartitionedCall/sequential/conv1d/Conv1D/SpaceToBatchND", "StatefulPartitionedCall/sequential/conv1d/Conv1D/ExpandDims/dim"], "attr": {"Tdim": {"type": "DT_INT32"}, "T": {"type": "DT_FLOAT"}}}, {"name": "StatefulPartitionedCall/sequential/conv1d/Conv1D", "op": "Conv2D", "input": ["StatefulPartitionedCall/sequential/conv1d/Conv1D/ExpandDims", "StatefulPartitionedCall/sequential/conv1d/Conv1D/ExpandDims_1"], "device": "/device:CPU:0", "attr": {"use_cudnn_on_gpu": {"b": true}, "dilations": {"list": {"i": ["1", "1", "1", "1"]}}, "data_format": {"s": "TkhXQw=="}, "explicit_paddings": {"list": {}}, "padding": {"s": "VkFMSUQ="}, "T": {"type": "DT_FLOAT"}, "strides": {"list": {"i": ["1", "1", "1", "1"]}}}}, {"name": "StatefulPartitionedCall/sequential/conv1d/Conv1D/Squeeze", "op": "Squeeze", "input": ["StatefulPartitionedCall/sequential/conv1d/Conv1D"], "attr": {"T": {"type": "DT_FLOAT"}, "squeeze_dims": {"list": {"i": ["-3"]}}}}, {"name": "StatefulPartitionedCall/sequential/conv1d/Conv1D/BatchToSpaceND", "op": "BatchToSpaceND", "input": ["StatefulPartitionedCall/sequential/conv1d/Conv1D/Squeeze", "StatefulPartitionedCall/sequential/conv1d/Conv1D/BatchToSpaceND/block_shape", "StatefulPartitionedCall/sequential/conv1d/Conv1D/required_space_to_batch_paddings/crops"], "attr": {"T": {"type": "DT_FLOAT"}, "Tcrops": {"type": "DT_INT32"}, "Tblock_shape": {"type": "DT_INT32"}}}, {"name": "StatefulPartitionedCall/sequential/conv1d/BiasAdd", "op": "BiasAdd", "input": ["StatefulPartitionedCall/sequential/conv1d/Conv1D/BatchToSpaceND", "StatefulPartitionedCall/sequential/conv1d/BiasAdd/ReadVariableOp"], "attr": {"data_format": {"s": "TkhXQw=="}, "T": {"type": "DT_FLOAT"}}}, {"name": "StatefulPartitionedCall/sequential/conv1d/Relu", "op": "Relu", "input": ["StatefulPartitionedCall/sequential/conv1d/BiasAdd"], "attr": {"T": {"type": "DT_FLOAT"}}}, {"name": "StatefulPartitionedCall/sequential/batch_normalization/batchnorm/mul_1", "op": "Mul", "input": ["StatefulPartitionedCall/sequential/conv1d/Relu", "StatefulPartitionedCall/sequential/batch_normalization/batchnorm/mul"], "attr": {"T": {"type": "DT_FLOAT"}}}, {"name": "StatefulPartitionedCall/sequential/batch_normalization/batchnorm/add_1", "op": "AddV2", "input": ["StatefulPartitionedCall/sequential/batch_normalization/batchnorm/mul_1", "StatefulPartitionedCall/sequential/batch_normalization/batchnorm/sub"], "attr": {"T": {"type": "DT_FLOAT"}}}, {"name": "StatefulPartitionedCall/sequential/conv1d_1/Conv1D/Shape", "op": "Shape", "input": ["StatefulPartitionedCall/sequential/batch_normalization/batchnorm/add_1"], "attr": {"T": {"type": "DT_FLOAT"}, "out_type": {"type": "DT_INT32"}}, "experimentalType": {"typeId": "TFT_PRODUCT", "args": [{"typeId": "TFT_SHAPE_TENSOR", "args": [{"typeId": "TFT_INT32"}]}]}}, {"name": "StatefulPartitionedCall/sequential/conv1d_1/Conv1D/strided_slice", "op": "StridedSlice", "input": ["StatefulPartitionedCall/sequential/conv1d_1/Conv1D/Shape", "StatefulPartitionedCall/sequential/conv1d_1/Conv1D/strided_slice/stack", "StatefulPartitionedCall/sequential/conv1d_1/Conv1D/strided_slice/stack_1", "StatefulPartitionedCall/sequential/conv1d_1/Conv1D/strided_slice/stack_2"], "attr": {"begin_mask": {"i": "0"}, "T": {"type": "DT_INT32"}, "end_mask": {"i": "0"}, "ellipsis_mask": {"i": "0"}, "Index": {"type": "DT_INT32"}, "shrink_axis_mask": {"i": "1"}, "new_axis_mask": {"i": "0"}}}, {"name": "ConstantFolding/StatefulPartitionedCall/sequential/conv1d_1/Conv1D/stack_1_const_axis", "op": "Const", "input": ["^StatefulPartitionedCall/sequential/conv1d_1/Conv1D/strided_slice"], "attr": {"value": {"tensor": {"dtype": "DT_INT32", "tensorShape": {}}}, "dtype": {"type": "DT_INT32"}}}, {"name": "StatefulPartitionedCall/sequential/conv1d_1/Conv1D/stack_1", "op": "ExpandDims", "input": ["StatefulPartitionedCall/sequential/conv1d_1/Conv1D/strided_slice", "ConstantFolding/StatefulPartitionedCall/sequential/conv1d_1/Conv1D/stack_1_const_axis"], "attr": {"Tdim": {"type": "DT_INT32"}, "T": {"type": "DT_INT32"}}}, {"name": "StatefulPartitionedCall/sequential/conv1d_1/Conv1D/required_space_to_batch_paddings/add_1", "op": "AddV2", "input": ["StatefulPartitionedCall/sequential/conv1d_1/Conv1D/stack_1", "StatefulPartitionedCall/sequential/conv1d_1/Conv1D/required_space_to_batch_paddings/add"], "attr": {"T": {"type": "DT_INT32"}}}, {"name": "StatefulPartitionedCall/sequential/conv1d_1/Conv1D/required_space_to_batch_paddings/mod", "op": "FloorMod", "input": ["StatefulPartitionedCall/sequential/conv1d_1/Conv1D/required_space_to_batch_paddings/add_1", "StatefulPartitionedCall/sequential/conv1d_1/Conv1D/dilation_rate"], "attr": {"T": {"type": "DT_INT32"}}}, {"name": "StatefulPartitionedCall/sequential/conv1d_1/Conv1D/required_space_to_batch_paddings/sub", "op": "Sub", "input": ["StatefulPartitionedCall/sequential/conv1d_1/Conv1D/dilation_rate", "StatefulPartitionedCall/sequential/conv1d_1/Conv1D/required_space_to_batch_paddings/mod"], "attr": {"T": {"type": "DT_INT32"}}}, {"name": "StatefulPartitionedCall/sequential/conv1d_1/Conv1D/required_space_to_batch_paddings/mod_1", "op": "FloorMod", "input": ["StatefulPartitionedCall/sequential/conv1d_1/Conv1D/required_space_to_batch_paddings/sub", "StatefulPartitionedCall/sequential/conv1d_1/Conv1D/dilation_rate"], "attr": {"T": {"type": "DT_INT32"}}}, {"name": "StatefulPartitionedCall/sequential/conv1d_1/Conv1D/required_space_to_batch_paddings/add_2", "op": "AddV2", "input": ["StatefulPartitionedCall/sequential/conv1d_1/Conv1D/required_space_to_batch_paddings/strided_slice_1", "StatefulPartitionedCall/sequential/conv1d_1/Conv1D/required_space_to_batch_paddings/mod_1"], "attr": {"T": {"type": "DT_INT32"}}}, {"name": "StatefulPartitionedCall/sequential/conv1d_1/Conv1D/required_space_to_batch_paddings/strided_slice_4", "op": "StridedSlice", "input": ["StatefulPartitionedCall/sequential/conv1d_1/Conv1D/required_space_to_batch_paddings/mod_1", "StatefulPartitionedCall/sequential/conv1d_1/Conv1D/required_space_to_batch_paddings/strided_slice_4/stack", "StatefulPartitionedCall/sequential/conv1d_1/Conv1D/required_space_to_batch_paddings/strided_slice_4/stack_1", "StatefulPartitionedCall/sequential/conv1d_1/Conv1D/required_space_to_batch_paddings/strided_slice_4/stack_2"], "attr": {"ellipsis_mask": {"i": "0"}, "end_mask": {"i": "0"}, "new_axis_mask": {"i": "0"}, "T": {"type": "DT_INT32"}, "begin_mask": {"i": "0"}, "Index": {"type": "DT_INT32"}, "shrink_axis_mask": {"i": "1"}}}, {"name": "StatefulPartitionedCall/sequential/conv1d_1/Conv1D/required_space_to_batch_paddings/strided_slice_3", "op": "StridedSlice", "input": ["StatefulPartitionedCall/sequential/conv1d_1/Conv1D/required_space_to_batch_paddings/add_2", "StatefulPartitionedCall/sequential/conv1d_1/Conv1D/required_space_to_batch_paddings/strided_slice_3/stack", "StatefulPartitionedCall/sequential/conv1d_1/Conv1D/required_space_to_batch_paddings/strided_slice_3/stack_1", "StatefulPartitionedCall/sequential/conv1d_1/Conv1D/required_space_to_batch_paddings/strided_slice_3/stack_2"], "attr": {"new_axis_mask": {"i": "0"}, "Index": {"type": "DT_INT32"}, "shrink_axis_mask": {"i": "1"}, "ellipsis_mask": {"i": "0"}, "end_mask": {"i": "0"}, "T": {"type": "DT_INT32"}, "begin_mask": {"i": "0"}}}, {"name": "StatefulPartitionedCall/sequential/conv1d_1/Conv1D/required_space_to_batch_paddings/crops/0", "op": "Pack", "input": ["StatefulPartitionedCall/sequential/conv1d_1/Conv1D/required_space_to_batch_paddings/crops/0/0", "StatefulPartitionedCall/sequential/conv1d_1/Conv1D/required_space_to_batch_paddings/strided_slice_4"], "attr": {"T": {"type": "DT_INT32"}, "N": {"i": "2"}, "axis": {"i": "0"}}}, {"name": "StatefulPartitionedCall/sequential/conv1d_1/Conv1D/required_space_to_batch_paddings/paddings/0", "op": "Pack", "input": ["StatefulPartitionedCall/sequential/conv1d_1/Conv1D/required_space_to_batch_paddings/strided_slice_2", "StatefulPartitionedCall/sequential/conv1d_1/Conv1D/required_space_to_batch_paddings/strided_slice_3"], "attr": {"T": {"type": "DT_INT32"}, "N": {"i": "2"}, "axis": {"i": "0"}}}, {"name": "ConstantFolding/StatefulPartitionedCall/sequential/conv1d_1/Conv1D/required_space_to_batch_paddings/crops_const_axis", "op": "Const", "input": ["^StatefulPartitionedCall/sequential/conv1d_1/Conv1D/required_space_to_batch_paddings/crops/0"], "attr": {"value": {"tensor": {"dtype": "DT_INT32", "tensorShape": {}}}, "dtype": {"type": "DT_INT32"}}}, {"name": "ConstantFolding/StatefulPartitionedCall/sequential/conv1d_1/Conv1D/required_space_to_batch_paddings/paddings_const_axis", "op": "Const", "input": ["^StatefulPartitionedCall/sequential/conv1d_1/Conv1D/required_space_to_batch_paddings/paddings/0"], "attr": {"value": {"tensor": {"dtype": "DT_INT32", "tensorShape": {}}}, "dtype": {"type": "DT_INT32"}}}, {"name": "StatefulPartitionedCall/sequential/conv1d_1/Conv1D/required_space_to_batch_paddings/crops", "op": "ExpandDims", "input": ["StatefulPartitionedCall/sequential/conv1d_1/Conv1D/required_space_to_batch_paddings/crops/0", "ConstantFolding/StatefulPartitionedCall/sequential/conv1d_1/Conv1D/required_space_to_batch_paddings/crops_const_axis"], "attr": {"Tdim": {"type": "DT_INT32"}, "T": {"type": "DT_INT32"}}}, {"name": "StatefulPartitionedCall/sequential/conv1d_1/Conv1D/required_space_to_batch_paddings/paddings", "op": "ExpandDims", "input": ["StatefulPartitionedCall/sequential/conv1d_1/Conv1D/required_space_to_batch_paddings/paddings/0", "ConstantFolding/StatefulPartitionedCall/sequential/conv1d_1/Conv1D/required_space_to_batch_paddings/paddings_const_axis"], "attr": {"T": {"type": "DT_INT32"}, "Tdim": {"type": "DT_INT32"}}}, {"name": "StatefulPartitionedCall/sequential/conv1d_1/Conv1D/SpaceToBatchND", "op": "SpaceToBatchND", "input": ["StatefulPartitionedCall/sequential/batch_normalization/batchnorm/add_1", "StatefulPartitionedCall/sequential/conv1d_1/Conv1D/SpaceToBatchND/block_shape", "StatefulPartitionedCall/sequential/conv1d_1/Conv1D/required_space_to_batch_paddings/paddings"], "attr": {"T": {"type": "DT_FLOAT"}, "Tblock_shape": {"type": "DT_INT32"}, "Tpaddings": {"type": "DT_INT32"}}}, {"name": "StatefulPartitionedCall/sequential/conv1d_1/Conv1D/ExpandDims", "op": "ExpandDims", "input": ["StatefulPartitionedCall/sequential/conv1d_1/Conv1D/SpaceToBatchND", "StatefulPartitionedCall/sequential/conv1d_1/Conv1D/ExpandDims/dim"], "attr": {"Tdim": {"type": "DT_INT32"}, "T": {"type": "DT_FLOAT"}}}, {"name": "StatefulPartitionedCall/sequential/conv1d_1/Conv1D", "op": "Conv2D", "input": ["StatefulPartitionedCall/sequential/conv1d_1/Conv1D/ExpandDims", "StatefulPartitionedCall/sequential/conv1d_1/Conv1D/ExpandDims_1"], "device": "/device:CPU:0", "attr": {"dilations": {"list": {"i": ["1", "1", "1", "1"]}}, "T": {"type": "DT_FLOAT"}, "use_cudnn_on_gpu": {"b": true}, "padding": {"s": "VkFMSUQ="}, "explicit_paddings": {"list": {}}, "data_format": {"s": "TkhXQw=="}, "strides": {"list": {"i": ["1", "1", "1", "1"]}}}}, {"name": "StatefulPartitionedCall/sequential/conv1d_1/Conv1D/Squeeze", "op": "Squeeze", "input": ["StatefulPartitionedCall/sequential/conv1d_1/Conv1D"], "attr": {"T": {"type": "DT_FLOAT"}, "squeeze_dims": {"list": {"i": ["-3"]}}}}, {"name": "StatefulPartitionedCall/sequential/conv1d_1/Conv1D/BatchToSpaceND", "op": "BatchToSpaceND", "input": ["StatefulPartitionedCall/sequential/conv1d_1/Conv1D/Squeeze", "StatefulPartitionedCall/sequential/conv1d_1/Conv1D/BatchToSpaceND/block_shape", "StatefulPartitionedCall/sequential/conv1d_1/Conv1D/required_space_to_batch_paddings/crops"], "attr": {"Tblock_shape": {"type": "DT_INT32"}, "T": {"type": "DT_FLOAT"}, "Tcrops": {"type": "DT_INT32"}}}, {"name": "StatefulPartitionedCall/sequential/conv1d_1/BiasAdd", "op": "BiasAdd", "input": ["StatefulPartitionedCall/sequential/conv1d_1/Conv1D/BatchToSpaceND", "StatefulPartitionedCall/sequential/conv1d_1/BiasAdd/ReadVariableOp"], "attr": {"T": {"type": "DT_FLOAT"}, "data_format": {"s": "TkhXQw=="}}}, {"name": "StatefulPartitionedCall/sequential/conv1d_1/Relu", "op": "Relu", "input": ["StatefulPartitionedCall/sequential/conv1d_1/BiasAdd"], "attr": {"T": {"type": "DT_FLOAT"}}}, {"name": "StatefulPartitionedCall/sequential/batch_normalization_1/batchnorm/mul_1", "op": "Mul", "input": ["StatefulPartitionedCall/sequential/conv1d_1/Relu", "StatefulPartitionedCall/sequential/batch_normalization_1/batchnorm/mul"], "attr": {"T": {"type": "DT_FLOAT"}}}, {"name": "StatefulPartitionedCall/sequential/batch_normalization_1/batchnorm/add_1", "op": "AddV2", "input": ["StatefulPartitionedCall/sequential/batch_normalization_1/batchnorm/mul_1", "StatefulPartitionedCall/sequential/batch_normalization_1/batchnorm/sub"], "attr": {"T": {"type": "DT_FLOAT"}}}, {"name": "StatefulPartitionedCall/sequential/conv1d_2/Conv1D/ExpandDims", "op": "ExpandDims", "input": ["StatefulPartitionedCall/sequential/batch_normalization_1/batchnorm/add_1", "StatefulPartitionedCall/sequential/conv1d_2/Conv1D/ExpandDims/dim"], "attr": {"T": {"type": "DT_FLOAT"}, "Tdim": {"type": "DT_INT32"}}}, {"name": "StatefulPartitionedCall/sequential/conv1d_2/Conv1D", "op": "_FusedConv2D", "input": ["StatefulPartitionedCall/sequential/conv1d_2/Conv1D/ExpandDims", "StatefulPartitionedCall/sequential/conv1d_2/Conv1D/ExpandDims_1", "StatefulPartitionedCall/sequential/conv1d_2/BiasAdd/ReadVariableOp"], "device": "/device:CPU:0", "attr": {"num_host_args": {"i": "0"}, "padding": {"s": "U0FNRQ=="}, "strides": {"list": {"i": ["1", "1", "1", "1"]}}, "TArgs": {"list": {"type": ["DT_FLOAT"]}}, "num_args": {"i": "1"}, "dilations": {"list": {"i": ["1", "1", "1", "1"]}}, "data_format": {"s": "TkhXQw=="}, "T": {"type": "DT_FLOAT"}, "explicit_paddings": {"list": {}}, "use_cudnn_on_gpu": {"b": true}, "epsilon": {"f": 0.0}, "fused_ops": {"list": {"s": ["Qmlhc0FkZA=="]}}, "filter_format": {"s": "SFdJTw=="}, "leakyrelu_alpha": {"f": 0.2}}}, {"name": "StatefulPartitionedCall/sequential/conv1d_2/BiasAdd", "op": "Squeeze", "input": ["StatefulPartitionedCall/sequential/conv1d_2/Conv1D"], "attr": {"T": {"type": "DT_FLOAT"}, "squeeze_dims": {"list": {"i": ["-3"]}}}}, {"name": "StatefulPartitionedCall/sequential/conv1d_2/Relu", "op": "Relu", "input": ["StatefulPartitionedCall/sequential/conv1d_2/BiasAdd"], "attr": {"T": {"type": "DT_FLOAT"}}}, {"name": "StatefulPartitionedCall/sequential/max_pooling1d/ExpandDims", "op": "ExpandDims", "input": ["StatefulPartitionedCall/sequential/conv1d_2/Relu", "StatefulPartitionedCall/sequential/max_pooling1d/ExpandDims/dim"], "attr": {"Tdim": {"type": "DT_INT32"}, "T": {"type": "DT_FLOAT"}}}, {"name": "StatefulPartitionedCall/sequential/max_pooling1d/MaxPool", "op": "MaxPool", "input": ["StatefulPartitionedCall/sequential/max_pooling1d/ExpandDims"], "attr": {"padding": {"s": "VkFMSUQ="}, "explicit_paddings": {"list": {}}, "T": {"type": "DT_FLOAT"}, "data_format": {"s": "TkhXQw=="}, "strides": {"list": {"i": ["1", "2", "1", "1"]}}, "ksize": {"list": {"i": ["1", "2", "1", "1"]}}}}, {"name": "StatefulPartitionedCall/sequential/max_pooling1d/Squeeze", "op": "Squeeze", "input": ["StatefulPartitionedCall/sequential/max_pooling1d/MaxPool"], "attr": {"T": {"type": "DT_FLOAT"}, "squeeze_dims": {"list": {"i": ["2"]}}}}, {"name": "StatefulPartitionedCall/sequential/conv1d_3/Conv1D/Shape", "op": "Shape", "input": ["StatefulPartitionedCall/sequential/max_pooling1d/Squeeze"], "attr": {"T": {"type": "DT_FLOAT"}, "out_type": {"type": "DT_INT32"}}, "experimentalType": {"typeId": "TFT_PRODUCT", "args": [{"typeId": "TFT_SHAPE_TENSOR", "args": [{"typeId": "TFT_INT32"}]}]}}, {"name": "StatefulPartitionedCall/sequential/conv1d_3/Conv1D/strided_slice", "op": "StridedSlice", "input": ["StatefulPartitionedCall/sequential/conv1d_3/Conv1D/Shape", "StatefulPartitionedCall/sequential/conv1d_3/Conv1D/strided_slice/stack", "StatefulPartitionedCall/sequential/conv1d_3/Conv1D/strided_slice/stack_1", "StatefulPartitionedCall/sequential/conv1d_3/Conv1D/strided_slice/stack_2"], "attr": {"end_mask": {"i": "0"}, "begin_mask": {"i": "0"}, "Index": {"type": "DT_INT32"}, "shrink_axis_mask": {"i": "1"}, "new_axis_mask": {"i": "0"}, "T": {"type": "DT_INT32"}, "ellipsis_mask": {"i": "0"}}}, {"name": "ConstantFolding/StatefulPartitionedCall/sequential/conv1d_3/Conv1D/stack_1_const_axis", "op": "Const", "input": ["^StatefulPartitionedCall/sequential/conv1d_3/Conv1D/strided_slice"], "attr": {"value": {"tensor": {"dtype": "DT_INT32", "tensorShape": {}}}, "dtype": {"type": "DT_INT32"}}}, {"name": "StatefulPartitionedCall/sequential/conv1d_3/Conv1D/stack_1", "op": "ExpandDims", "input": ["StatefulPartitionedCall/sequential/conv1d_3/Conv1D/strided_slice", "ConstantFolding/StatefulPartitionedCall/sequential/conv1d_3/Conv1D/stack_1_const_axis"], "attr": {"Tdim": {"type": "DT_INT32"}, "T": {"type": "DT_INT32"}}}, {"name": "StatefulPartitionedCall/sequential/conv1d_3/Conv1D/required_space_to_batch_paddings/add_1", "op": "AddV2", "input": ["StatefulPartitionedCall/sequential/conv1d_3/Conv1D/stack_1", "StatefulPartitionedCall/sequential/conv1d_3/Conv1D/required_space_to_batch_paddings/add"], "attr": {"T": {"type": "DT_INT32"}}}, {"name": "StatefulPartitionedCall/sequential/conv1d_3/Conv1D/required_space_to_batch_paddings/mod", "op": "FloorMod", "input": ["StatefulPartitionedCall/sequential/conv1d_3/Conv1D/required_space_to_batch_paddings/add_1", "StatefulPartitionedCall/sequential/conv1d_3/Conv1D/dilation_rate"], "attr": {"T": {"type": "DT_INT32"}}}, {"name": "StatefulPartitionedCall/sequential/conv1d_3/Conv1D/required_space_to_batch_paddings/sub", "op": "Sub", "input": ["StatefulPartitionedCall/sequential/conv1d_3/Conv1D/dilation_rate", "StatefulPartitionedCall/sequential/conv1d_3/Conv1D/required_space_to_batch_paddings/mod"], "attr": {"T": {"type": "DT_INT32"}}}, {"name": "StatefulPartitionedCall/sequential/conv1d_3/Conv1D/required_space_to_batch_paddings/mod_1", "op": "FloorMod", "input": ["StatefulPartitionedCall/sequential/conv1d_3/Conv1D/required_space_to_batch_paddings/sub", "StatefulPartitionedCall/sequential/conv1d_3/Conv1D/dilation_rate"], "attr": {"T": {"type": "DT_INT32"}}}, {"name": "StatefulPartitionedCall/sequential/conv1d_3/Conv1D/required_space_to_batch_paddings/add_2", "op": "AddV2", "input": ["StatefulPartitionedCall/sequential/conv1d_3/Conv1D/required_space_to_batch_paddings/strided_slice_1", "StatefulPartitionedCall/sequential/conv1d_3/Conv1D/required_space_to_batch_paddings/mod_1"], "attr": {"T": {"type": "DT_INT32"}}}, {"name": "StatefulPartitionedCall/sequential/conv1d_3/Conv1D/required_space_to_batch_paddings/strided_slice_4", "op": "StridedSlice", "input": ["StatefulPartitionedCall/sequential/conv1d_3/Conv1D/required_space_to_batch_paddings/mod_1", "StatefulPartitionedCall/sequential/conv1d_3/Conv1D/required_space_to_batch_paddings/strided_slice_4/stack", "StatefulPartitionedCall/sequential/conv1d_3/Conv1D/required_space_to_batch_paddings/strided_slice_4/stack_1", "StatefulPartitionedCall/sequential/conv1d_3/Conv1D/required_space_to_batch_paddings/strided_slice_4/stack_2"], "attr": {"begin_mask": {"i": "0"}, "Index": {"type": "DT_INT32"}, "shrink_axis_mask": {"i": "1"}, "ellipsis_mask": {"i": "0"}, "new_axis_mask": {"i": "0"}, "end_mask": {"i": "0"}, "T": {"type": "DT_INT32"}}}, {"name": "StatefulPartitionedCall/sequential/conv1d_3/Conv1D/required_space_to_batch_paddings/strided_slice_3", "op": "StridedSlice", "input": ["StatefulPartitionedCall/sequential/conv1d_3/Conv1D/required_space_to_batch_paddings/add_2", "StatefulPartitionedCall/sequential/conv1d_3/Conv1D/required_space_to_batch_paddings/strided_slice_3/stack", "StatefulPartitionedCall/sequential/conv1d_3/Conv1D/required_space_to_batch_paddings/strided_slice_3/stack_1", "StatefulPartitionedCall/sequential/conv1d_3/Conv1D/required_space_to_batch_paddings/strided_slice_3/stack_2"], "attr": {"new_axis_mask": {"i": "0"}, "Index": {"type": "DT_INT32"}, "ellipsis_mask": {"i": "0"}, "shrink_axis_mask": {"i": "1"}, "begin_mask": {"i": "0"}, "T": {"type": "DT_INT32"}, "end_mask": {"i": "0"}}}, {"name": "StatefulPartitionedCall/sequential/conv1d_3/Conv1D/required_space_to_batch_paddings/crops/0", "op": "Pack", "input": ["StatefulPartitionedCall/sequential/conv1d_3/Conv1D/required_space_to_batch_paddings/crops/0/0", "StatefulPartitionedCall/sequential/conv1d_3/Conv1D/required_space_to_batch_paddings/strided_slice_4"], "attr": {"N": {"i": "2"}, "axis": {"i": "0"}, "T": {"type": "DT_INT32"}}}, {"name": "StatefulPartitionedCall/sequential/conv1d_3/Conv1D/required_space_to_batch_paddings/paddings/0", "op": "Pack", "input": ["StatefulPartitionedCall/sequential/conv1d_3/Conv1D/required_space_to_batch_paddings/strided_slice_2", "StatefulPartitionedCall/sequential/conv1d_3/Conv1D/required_space_to_batch_paddings/strided_slice_3"], "attr": {"T": {"type": "DT_INT32"}, "axis": {"i": "0"}, "N": {"i": "2"}}}, {"name": "ConstantFolding/StatefulPartitionedCall/sequential/conv1d_3/Conv1D/required_space_to_batch_paddings/crops_const_axis", "op": "Const", "input": ["^StatefulPartitionedCall/sequential/conv1d_3/Conv1D/required_space_to_batch_paddings/crops/0"], "attr": {"dtype": {"type": "DT_INT32"}, "value": {"tensor": {"dtype": "DT_INT32", "tensorShape": {}}}}}, {"name": "ConstantFolding/StatefulPartitionedCall/sequential/conv1d_3/Conv1D/required_space_to_batch_paddings/paddings_const_axis", "op": "Const", "input": ["^StatefulPartitionedCall/sequential/conv1d_3/Conv1D/required_space_to_batch_paddings/paddings/0"], "attr": {"value": {"tensor": {"dtype": "DT_INT32", "tensorShape": {}}}, "dtype": {"type": "DT_INT32"}}}, {"name": "StatefulPartitionedCall/sequential/conv1d_3/Conv1D/required_space_to_batch_paddings/crops", "op": "ExpandDims", "input": ["StatefulPartitionedCall/sequential/conv1d_3/Conv1D/required_space_to_batch_paddings/crops/0", "ConstantFolding/StatefulPartitionedCall/sequential/conv1d_3/Conv1D/required_space_to_batch_paddings/crops_const_axis"], "attr": {"Tdim": {"type": "DT_INT32"}, "T": {"type": "DT_INT32"}}}, {"name": "StatefulPartitionedCall/sequential/conv1d_3/Conv1D/required_space_to_batch_paddings/paddings", "op": "ExpandDims", "input": ["StatefulPartitionedCall/sequential/conv1d_3/Conv1D/required_space_to_batch_paddings/paddings/0", "ConstantFolding/StatefulPartitionedCall/sequential/conv1d_3/Conv1D/required_space_to_batch_paddings/paddings_const_axis"], "attr": {"Tdim": {"type": "DT_INT32"}, "T": {"type": "DT_INT32"}}}, {"name": "StatefulPartitionedCall/sequential/conv1d_3/Conv1D/SpaceToBatchND", "op": "SpaceToBatchND", "input": ["StatefulPartitionedCall/sequential/max_pooling1d/Squeeze", "StatefulPartitionedCall/sequential/conv1d_3/Conv1D/SpaceToBatchND/block_shape", "StatefulPartitionedCall/sequential/conv1d_3/Conv1D/required_space_to_batch_paddings/paddings"], "attr": {"T": {"type": "DT_FLOAT"}, "Tblock_shape": {"type": "DT_INT32"}, "Tpaddings": {"type": "DT_INT32"}}}, {"name": "StatefulPartitionedCall/sequential/conv1d_3/Conv1D/ExpandDims", "op": "ExpandDims", "input": ["StatefulPartitionedCall/sequential/conv1d_3/Conv1D/SpaceToBatchND", "StatefulPartitionedCall/sequential/conv1d_3/Conv1D/ExpandDims/dim"], "attr": {"Tdim": {"type": "DT_INT32"}, "T": {"type": "DT_FLOAT"}}}, {"name": "StatefulPartitionedCall/sequential/conv1d_3/Conv1D", "op": "Conv2D", "input": ["StatefulPartitionedCall/sequential/conv1d_3/Conv1D/ExpandDims", "StatefulPartitionedCall/sequential/conv1d_3/Conv1D/ExpandDims_1"], "device": "/device:CPU:0", "attr": {"strides": {"list": {"i": ["1", "1", "1", "1"]}}, "data_format": {"s": "TkhXQw=="}, "padding": {"s": "VkFMSUQ="}, "dilations": {"list": {"i": ["1", "1", "1", "1"]}}, "explicit_paddings": {"list": {}}, "use_cudnn_on_gpu": {"b": true}, "T": {"type": "DT_FLOAT"}}}, {"name": "StatefulPartitionedCall/sequential/conv1d_3/Conv1D/Squeeze", "op": "Squeeze", "input": ["StatefulPartitionedCall/sequential/conv1d_3/Conv1D"], "attr": {"squeeze_dims": {"list": {"i": ["-3"]}}, "T": {"type": "DT_FLOAT"}}}, {"name": "StatefulPartitionedCall/sequential/conv1d_3/Conv1D/BatchToSpaceND", "op": "BatchToSpaceND", "input": ["StatefulPartitionedCall/sequential/conv1d_3/Conv1D/Squeeze", "StatefulPartitionedCall/sequential/conv1d_3/Conv1D/BatchToSpaceND/block_shape", "StatefulPartitionedCall/sequential/conv1d_3/Conv1D/required_space_to_batch_paddings/crops"], "attr": {"T": {"type": "DT_FLOAT"}, "Tcrops": {"type": "DT_INT32"}, "Tblock_shape": {"type": "DT_INT32"}}}, {"name": "StatefulPartitionedCall/sequential/conv1d_3/BiasAdd", "op": "BiasAdd", "input": ["StatefulPartitionedCall/sequential/conv1d_3/Conv1D/BatchToSpaceND", "StatefulPartitionedCall/sequential/conv1d_3/BiasAdd/ReadVariableOp"], "attr": {"T": {"type": "DT_FLOAT"}, "data_format": {"s": "TkhXQw=="}}}, {"name": "StatefulPartitionedCall/sequential/conv1d_3/Relu", "op": "Relu", "input": ["StatefulPartitionedCall/sequential/conv1d_3/BiasAdd"], "attr": {"T": {"type": "DT_FLOAT"}}}, {"name": "StatefulPartitionedCall/sequential/batch_normalization_2/batchnorm/mul_1", "op": "Mul", "input": ["StatefulPartitionedCall/sequential/conv1d_3/Relu", "StatefulPartitionedCall/sequential/batch_normalization_2/batchnorm/mul"], "attr": {"T": {"type": "DT_FLOAT"}}}, {"name": "StatefulPartitionedCall/sequential/batch_normalization_2/batchnorm/add_1", "op": "AddV2", "input": ["StatefulPartitionedCall/sequential/batch_normalization_2/batchnorm/mul_1", "StatefulPartitionedCall/sequential/batch_normalization_2/batchnorm/sub"], "attr": {"T": {"type": "DT_FLOAT"}}}, {"name": "StatefulPartitionedCall/sequential/conv1d_4/Conv1D/Shape", "op": "Shape", "input": ["StatefulPartitionedCall/sequential/batch_normalization_2/batchnorm/add_1"], "attr": {"out_type": {"type": "DT_INT32"}, "T": {"type": "DT_FLOAT"}}, "experimentalType": {"typeId": "TFT_PRODUCT", "args": [{"typeId": "TFT_SHAPE_TENSOR", "args": [{"typeId": "TFT_INT32"}]}]}}, {"name": "StatefulPartitionedCall/sequential/conv1d_4/Conv1D/strided_slice", "op": "StridedSlice", "input": ["StatefulPartitionedCall/sequential/conv1d_4/Conv1D/Shape", "StatefulPartitionedCall/sequential/conv1d_4/Conv1D/strided_slice/stack", "StatefulPartitionedCall/sequential/conv1d_4/Conv1D/strided_slice/stack_1", "StatefulPartitionedCall/sequential/conv1d_4/Conv1D/strided_slice/stack_2"], "attr": {"begin_mask": {"i": "0"}, "new_axis_mask": {"i": "0"}, "Index": {"type": "DT_INT32"}, "ellipsis_mask": {"i": "0"}, "T": {"type": "DT_INT32"}, "end_mask": {"i": "0"}, "shrink_axis_mask": {"i": "1"}}}, {"name": "ConstantFolding/StatefulPartitionedCall/sequential/conv1d_4/Conv1D/stack_1_const_axis", "op": "Const", "input": ["^StatefulPartitionedCall/sequential/conv1d_4/Conv1D/strided_slice"], "attr": {"dtype": {"type": "DT_INT32"}, "value": {"tensor": {"dtype": "DT_INT32", "tensorShape": {}}}}}, {"name": "StatefulPartitionedCall/sequential/conv1d_4/Conv1D/stack_1", "op": "ExpandDims", "input": ["StatefulPartitionedCall/sequential/conv1d_4/Conv1D/strided_slice", "ConstantFolding/StatefulPartitionedCall/sequential/conv1d_4/Conv1D/stack_1_const_axis"], "attr": {"Tdim": {"type": "DT_INT32"}, "T": {"type": "DT_INT32"}}}, {"name": "StatefulPartitionedCall/sequential/conv1d_4/Conv1D/required_space_to_batch_paddings/add_1", "op": "AddV2", "input": ["StatefulPartitionedCall/sequential/conv1d_4/Conv1D/stack_1", "StatefulPartitionedCall/sequential/conv1d_4/Conv1D/required_space_to_batch_paddings/add"], "attr": {"T": {"type": "DT_INT32"}}}, {"name": "StatefulPartitionedCall/sequential/conv1d_4/Conv1D/required_space_to_batch_paddings/mod", "op": "FloorMod", "input": ["StatefulPartitionedCall/sequential/conv1d_4/Conv1D/required_space_to_batch_paddings/add_1", "StatefulPartitionedCall/sequential/conv1d_4/Conv1D/dilation_rate"], "attr": {"T": {"type": "DT_INT32"}}}, {"name": "StatefulPartitionedCall/sequential/conv1d_4/Conv1D/required_space_to_batch_paddings/sub", "op": "Sub", "input": ["StatefulPartitionedCall/sequential/conv1d_4/Conv1D/dilation_rate", "StatefulPartitionedCall/sequential/conv1d_4/Conv1D/required_space_to_batch_paddings/mod"], "attr": {"T": {"type": "DT_INT32"}}}, {"name": "StatefulPartitionedCall/sequential/conv1d_4/Conv1D/required_space_to_batch_paddings/mod_1", "op": "FloorMod", "input": ["StatefulPartitionedCall/sequential/conv1d_4/Conv1D/required_space_to_batch_paddings/sub", "StatefulPartitionedCall/sequential/conv1d_4/Conv1D/dilation_rate"], "attr": {"T": {"type": "DT_INT32"}}}, {"name": "StatefulPartitionedCall/sequential/conv1d_4/Conv1D/required_space_to_batch_paddings/add_2", "op": "AddV2", "input": ["StatefulPartitionedCall/sequential/conv1d_4/Conv1D/required_space_to_batch_paddings/strided_slice_1", "StatefulPartitionedCall/sequential/conv1d_4/Conv1D/required_space_to_batch_paddings/mod_1"], "attr": {"T": {"type": "DT_INT32"}}}, {"name": "StatefulPartitionedCall/sequential/conv1d_4/Conv1D/required_space_to_batch_paddings/strided_slice_4", "op": "StridedSlice", "input": ["StatefulPartitionedCall/sequential/conv1d_4/Conv1D/required_space_to_batch_paddings/mod_1", "StatefulPartitionedCall/sequential/conv1d_4/Conv1D/required_space_to_batch_paddings/strided_slice_4/stack", "StatefulPartitionedCall/sequential/conv1d_4/Conv1D/required_space_to_batch_paddings/strided_slice_4/stack_1", "StatefulPartitionedCall/sequential/conv1d_4/Conv1D/required_space_to_batch_paddings/strided_slice_4/stack_2"], "attr": {"end_mask": {"i": "0"}, "T": {"type": "DT_INT32"}, "Index": {"type": "DT_INT32"}, "begin_mask": {"i": "0"}, "ellipsis_mask": {"i": "0"}, "new_axis_mask": {"i": "0"}, "shrink_axis_mask": {"i": "1"}}}, {"name": "StatefulPartitionedCall/sequential/conv1d_4/Conv1D/required_space_to_batch_paddings/strided_slice_3", "op": "StridedSlice", "input": ["StatefulPartitionedCall/sequential/conv1d_4/Conv1D/required_space_to_batch_paddings/add_2", "StatefulPartitionedCall/sequential/conv1d_4/Conv1D/required_space_to_batch_paddings/strided_slice_3/stack", "StatefulPartitionedCall/sequential/conv1d_4/Conv1D/required_space_to_batch_paddings/strided_slice_3/stack_1", "StatefulPartitionedCall/sequential/conv1d_4/Conv1D/required_space_to_batch_paddings/strided_slice_3/stack_2"], "attr": {"begin_mask": {"i": "0"}, "new_axis_mask": {"i": "0"}, "Index": {"type": "DT_INT32"}, "end_mask": {"i": "0"}, "T": {"type": "DT_INT32"}, "ellipsis_mask": {"i": "0"}, "shrink_axis_mask": {"i": "1"}}}, {"name": "StatefulPartitionedCall/sequential/conv1d_4/Conv1D/required_space_to_batch_paddings/crops/0", "op": "Pack", "input": ["StatefulPartitionedCall/sequential/conv1d_4/Conv1D/required_space_to_batch_paddings/crops/0/0", "StatefulPartitionedCall/sequential/conv1d_4/Conv1D/required_space_to_batch_paddings/strided_slice_4"], "attr": {"N": {"i": "2"}, "axis": {"i": "0"}, "T": {"type": "DT_INT32"}}}, {"name": "StatefulPartitionedCall/sequential/conv1d_4/Conv1D/required_space_to_batch_paddings/paddings/0", "op": "Pack", "input": ["StatefulPartitionedCall/sequential/conv1d_4/Conv1D/required_space_to_batch_paddings/strided_slice_2", "StatefulPartitionedCall/sequential/conv1d_4/Conv1D/required_space_to_batch_paddings/strided_slice_3"], "attr": {"T": {"type": "DT_INT32"}, "axis": {"i": "0"}, "N": {"i": "2"}}}, {"name": "ConstantFolding/StatefulPartitionedCall/sequential/conv1d_4/Conv1D/required_space_to_batch_paddings/crops_const_axis", "op": "Const", "input": ["^StatefulPartitionedCall/sequential/conv1d_4/Conv1D/required_space_to_batch_paddings/crops/0"], "attr": {"value": {"tensor": {"dtype": "DT_INT32", "tensorShape": {}}}, "dtype": {"type": "DT_INT32"}}}, {"name": "ConstantFolding/StatefulPartitionedCall/sequential/conv1d_4/Conv1D/required_space_to_batch_paddings/paddings_const_axis", "op": "Const", "input": ["^StatefulPartitionedCall/sequential/conv1d_4/Conv1D/required_space_to_batch_paddings/paddings/0"], "attr": {"value": {"tensor": {"dtype": "DT_INT32", "tensorShape": {}}}, "dtype": {"type": "DT_INT32"}}}, {"name": "StatefulPartitionedCall/sequential/conv1d_4/Conv1D/required_space_to_batch_paddings/crops", "op": "ExpandDims", "input": ["StatefulPartitionedCall/sequential/conv1d_4/Conv1D/required_space_to_batch_paddings/crops/0", "ConstantFolding/StatefulPartitionedCall/sequential/conv1d_4/Conv1D/required_space_to_batch_paddings/crops_const_axis"], "attr": {"Tdim": {"type": "DT_INT32"}, "T": {"type": "DT_INT32"}}}, {"name": "StatefulPartitionedCall/sequential/conv1d_4/Conv1D/required_space_to_batch_paddings/paddings", "op": "ExpandDims", "input": ["StatefulPartitionedCall/sequential/conv1d_4/Conv1D/required_space_to_batch_paddings/paddings/0", "ConstantFolding/StatefulPartitionedCall/sequential/conv1d_4/Conv1D/required_space_to_batch_paddings/paddings_const_axis"], "attr": {"Tdim": {"type": "DT_INT32"}, "T": {"type": "DT_INT32"}}}, {"name": "StatefulPartitionedCall/sequential/conv1d_4/Conv1D/SpaceToBatchND", "op": "SpaceToBatchND", "input": ["StatefulPartitionedCall/sequential/batch_normalization_2/batchnorm/add_1", "StatefulPartitionedCall/sequential/conv1d_4/Conv1D/SpaceToBatchND/block_shape", "StatefulPartitionedCall/sequential/conv1d_4/Conv1D/required_space_to_batch_paddings/paddings"], "attr": {"T": {"type": "DT_FLOAT"}, "Tpaddings": {"type": "DT_INT32"}, "Tblock_shape": {"type": "DT_INT32"}}}, {"name": "StatefulPartitionedCall/sequential/conv1d_4/Conv1D/ExpandDims", "op": "ExpandDims", "input": ["StatefulPartitionedCall/sequential/conv1d_4/Conv1D/SpaceToBatchND", "StatefulPartitionedCall/sequential/conv1d_4/Conv1D/ExpandDims/dim"], "attr": {"T": {"type": "DT_FLOAT"}, "Tdim": {"type": "DT_INT32"}}}, {"name": "StatefulPartitionedCall/sequential/conv1d_4/Conv1D", "op": "Conv2D", "input": ["StatefulPartitionedCall/sequential/conv1d_4/Conv1D/ExpandDims", "StatefulPartitionedCall/sequential/conv1d_4/Conv1D/ExpandDims_1"], "device": "/device:CPU:0", "attr": {"explicit_paddings": {"list": {}}, "padding": {"s": "VkFMSUQ="}, "dilations": {"list": {"i": ["1", "1", "1", "1"]}}, "T": {"type": "DT_FLOAT"}, "strides": {"list": {"i": ["1", "1", "1", "1"]}}, "use_cudnn_on_gpu": {"b": true}, "data_format": {"s": "TkhXQw=="}}}, {"name": "StatefulPartitionedCall/sequential/conv1d_4/Conv1D/Squeeze", "op": "Squeeze", "input": ["StatefulPartitionedCall/sequential/conv1d_4/Conv1D"], "attr": {"T": {"type": "DT_FLOAT"}, "squeeze_dims": {"list": {"i": ["-3"]}}}}, {"name": "StatefulPartitionedCall/sequential/conv1d_4/Conv1D/BatchToSpaceND", "op": "BatchToSpaceND", "input": ["StatefulPartitionedCall/sequential/conv1d_4/Conv1D/Squeeze", "StatefulPartitionedCall/sequential/conv1d_4/Conv1D/BatchToSpaceND/block_shape", "StatefulPartitionedCall/sequential/conv1d_4/Conv1D/required_space_to_batch_paddings/crops"], "attr": {"Tblock_shape": {"type": "DT_INT32"}, "T": {"type": "DT_FLOAT"}, "Tcrops": {"type": "DT_INT32"}}}, {"name": "StatefulPartitionedCall/sequential/conv1d_4/BiasAdd", "op": "BiasAdd", "input": ["StatefulPartitionedCall/sequential/conv1d_4/Conv1D/BatchToSpaceND", "StatefulPartitionedCall/sequential/conv1d_4/BiasAdd/ReadVariableOp"], "attr": {"T": {"type": "DT_FLOAT"}, "data_format": {"s": "TkhXQw=="}}}, {"name": "StatefulPartitionedCall/sequential/conv1d_4/Relu", "op": "Relu", "input": ["StatefulPartitionedCall/sequential/conv1d_4/BiasAdd"], "attr": {"T": {"type": "DT_FLOAT"}}}, {"name": "StatefulPartitionedCall/sequential/batch_normalization_3/batchnorm/mul_1", "op": "Mul", "input": ["StatefulPartitionedCall/sequential/conv1d_4/Relu", "StatefulPartitionedCall/sequential/batch_normalization_3/batchnorm/mul"], "attr": {"T": {"type": "DT_FLOAT"}}}, {"name": "StatefulPartitionedCall/sequential/batch_normalization_3/batchnorm/add_1", "op": "AddV2", "input": ["StatefulPartitionedCall/sequential/batch_normalization_3/batchnorm/mul_1", "StatefulPartitionedCall/sequential/batch_normalization_3/batchnorm/sub"], "attr": {"T": {"type": "DT_FLOAT"}}}, {"name": "StatefulPartitionedCall/sequential/conv1d_5/Conv1D/ExpandDims", "op": "ExpandDims", "input": ["StatefulPartitionedCall/sequential/batch_normalization_3/batchnorm/add_1", "StatefulPartitionedCall/sequential/conv1d_5/Conv1D/ExpandDims/dim"], "attr": {"Tdim": {"type": "DT_INT32"}, "T": {"type": "DT_FLOAT"}}}, {"name": "StatefulPartitionedCall/sequential/conv1d_5/Conv1D", "op": "_FusedConv2D", "input": ["StatefulPartitionedCall/sequential/conv1d_5/Conv1D/ExpandDims", "StatefulPartitionedCall/sequential/conv1d_5/Conv1D/ExpandDims_1", "StatefulPartitionedCall/sequential/conv1d_5/BiasAdd/ReadVariableOp"], "device": "/device:CPU:0", "attr": {"num_host_args": {"i": "0"}, "TArgs": {"list": {"type": ["DT_FLOAT"]}}, "dilations": {"list": {"i": ["1", "1", "1", "1"]}}, "num_args": {"i": "1"}, "data_format": {"s": "TkhXQw=="}, "fused_ops": {"list": {"s": ["Qmlhc0FkZA=="]}}, "use_cudnn_on_gpu": {"b": true}, "strides": {"list": {"i": ["1", "1", "1", "1"]}}, "padding": {"s": "U0FNRQ=="}, "T": {"type": "DT_FLOAT"}, "explicit_paddings": {"list": {}}, "filter_format": {"s": "SFdJTw=="}, "epsilon": {"f": 0.0}, "leakyrelu_alpha": {"f": 0.2}}}, {"name": "StatefulPartitionedCall/sequential/conv1d_5/BiasAdd", "op": "Squeeze", "input": ["StatefulPartitionedCall/sequential/conv1d_5/Conv1D"], "attr": {"T": {"type": "DT_FLOAT"}, "squeeze_dims": {"list": {"i": ["-3"]}}}}, {"name": "StatefulPartitionedCall/sequential/conv1d_5/Relu", "op": "Relu", "input": ["StatefulPartitionedCall/sequential/conv1d_5/BiasAdd"], "attr": {"T": {"type": "DT_FLOAT"}}}, {"name": "StatefulPartitionedCall/sequential/max_pooling1d_1/ExpandDims", "op": "ExpandDims", "input": ["StatefulPartitionedCall/sequential/conv1d_5/Relu", "StatefulPartitionedCall/sequential/max_pooling1d_1/ExpandDims/dim"], "attr": {"T": {"type": "DT_FLOAT"}, "Tdim": {"type": "DT_INT32"}}}, {"name": "StatefulPartitionedCall/sequential/max_pooling1d_1/MaxPool", "op": "MaxPool", "input": ["StatefulPartitionedCall/sequential/max_pooling1d_1/ExpandDims"], "attr": {"T": {"type": "DT_FLOAT"}, "ksize": {"list": {"i": ["1", "2", "1", "1"]}}, "data_format": {"s": "TkhXQw=="}, "strides": {"list": {"i": ["1", "2", "1", "1"]}}, "padding": {"s": "VkFMSUQ="}, "explicit_paddings": {"list": {}}}}, {"name": "StatefulPartitionedCall/sequential/max_pooling1d_1/Squeeze", "op": "Squeeze", "input": ["StatefulPartitionedCall/sequential/max_pooling1d_1/MaxPool"], "attr": {"T": {"type": "DT_FLOAT"}, "squeeze_dims": {"list": {"i": ["2"]}}}}, {"name": "StatefulPartitionedCall/sequential/bidirectional/forward_lstm/Shape", "op": "Shape", "input": ["StatefulPartitionedCall/sequential/max_pooling1d_1/Squeeze"], "attr": {"T": {"type": "DT_FLOAT"}, "out_type": {"type": "DT_INT32"}}, "experimentalType": {"typeId": "TFT_PRODUCT", "args": [{"typeId": "TFT_SHAPE_TENSOR", "args": [{"typeId": "TFT_INT32"}]}]}}, {"name": "StatefulPartitionedCall/sequential/bidirectional/forward_lstm/PartitionedCall/transpose", "op": "Transpose", "input": ["StatefulPartitionedCall/sequential/max_pooling1d_1/Squeeze", "StatefulPartitionedCall/sequential/bidirectional/forward_lstm/PartitionedCall/transpose/perm"], "attr": {"Tperm": {"type": "DT_INT32"}, "T": {"type": "DT_FLOAT"}}}, {"name": "StatefulPartitionedCall/sequential/bidirectional/backward_lstm/Shape", "op": "Shape", "input": ["StatefulPartitionedCall/sequential/max_pooling1d_1/Squeeze"], "attr": {"out_type": {"type": "DT_INT32"}, "T": {"type": "DT_FLOAT"}}, "experimentalType": {"typeId": "TFT_PRODUCT", "args": [{"typeId": "TFT_SHAPE_TENSOR", "args": [{"typeId": "TFT_INT32"}]}]}}, {"name": "StatefulPartitionedCall/sequential/bidirectional/backward_lstm/PartitionedCall/transpose", "op": "Transpose", "input": ["StatefulPartitionedCall/sequential/max_pooling1d_1/Squeeze", "StatefulPartitionedCall/sequential/bidirectional/backward_lstm/PartitionedCall/transpose/perm"], "attr": {"Tperm": {"type": "DT_INT32"}, "T": {"type": "DT_FLOAT"}}}, {"name": "StatefulPartitionedCall/sequential/bidirectional/forward_lstm/strided_slice", "op": "StridedSlice", "input": ["StatefulPartitionedCall/sequential/bidirectional/forward_lstm/Shape", "StatefulPartitionedCall/sequential/bidirectional/forward_lstm/strided_slice/stack", "StatefulPartitionedCall/sequential/bidirectional/forward_lstm/strided_slice/stack_1", "StatefulPartitionedCall/sequential/bidirectional/forward_lstm/strided_slice/stack_2"], "attr": {"shrink_axis_mask": {"i": "1"}, "begin_mask": {"i": "0"}, "new_axis_mask": {"i": "0"}, "T": {"type": "DT_INT32"}, "ellipsis_mask": {"i": "0"}, "Index": {"type": "DT_INT32"}, "end_mask": {"i": "0"}}}, {"name": "StatefulPartitionedCall/sequential/bidirectional/forward_lstm/PartitionedCall/TensorArrayUnstack/TensorListFromTensor", "op": "TensorListFromTensor", "input": ["StatefulPartitionedCall/sequential/bidirectional/forward_lstm/PartitionedCall/transpose", "StatefulPartitionedCall/sequential/bidirectional/forward_lstm/PartitionedCall/TensorArrayUnstack/TensorListFromTensor/element_shape"], "attr": {"element_dtype": {"type": "DT_FLOAT"}, "shape_type": {"type": "DT_INT32"}}, "experimentalType": {"typeId": "TFT_PRODUCT", "args": [{"typeId": "TFT_ARRAY", "args": [{"typeId": "TFT_TENSOR", "args": [{"typeId": "TFT_FLOAT"}]}]}]}}, {"name": "StatefulPartitionedCall/sequential/bidirectional/forward_lstm/PartitionedCall/Shape", "op": "Shape", "input": ["StatefulPartitionedCall/sequential/bidirectional/forward_lstm/PartitionedCall/transpose"], "attr": {"out_type": {"type": "DT_INT32"}, "T": {"type": "DT_FLOAT"}}, "experimentalType": {"typeId": "TFT_PRODUCT", "args": [{"typeId": "TFT_SHAPE_TENSOR", "args": [{"typeId": "TFT_INT32"}]}]}}, {"name": "StatefulPartitionedCall/sequential/bidirectional/backward_lstm/strided_slice", "op": "StridedSlice", "input": ["StatefulPartitionedCall/sequential/bidirectional/backward_lstm/Shape", "StatefulPartitionedCall/sequential/bidirectional/backward_lstm/strided_slice/stack", "StatefulPartitionedCall/sequential/bidirectional/backward_lstm/strided_slice/stack_1", "StatefulPartitionedCall/sequential/bidirectional/backward_lstm/strided_slice/stack_2"], "attr": {"shrink_axis_mask": {"i": "1"}, "end_mask": {"i": "0"}, "new_axis_mask": {"i": "0"}, "begin_mask": {"i": "0"}, "ellipsis_mask": {"i": "0"}, "Index": {"type": "DT_INT32"}, "T": {"type": "DT_INT32"}}}, {"name": "StatefulPartitionedCall/sequential/bidirectional/backward_lstm/PartitionedCall/ReverseV2", "op": "ReverseV2", "input": ["StatefulPartitionedCall/sequential/bidirectional/backward_lstm/PartitionedCall/transpose", "StatefulPartitionedCall/sequential/bidirectional/backward_lstm/PartitionedCall/ReverseV2/axis"], "attr": {"Tidx": {"type": "DT_INT32"}, "T": {"type": "DT_FLOAT"}}}, {"name": "StatefulPartitionedCall/sequential/bidirectional/backward_lstm/PartitionedCall/Shape", "op": "Shape", "input": ["StatefulPartitionedCall/sequential/bidirectional/backward_lstm/PartitionedCall/transpose"], "attr": {"out_type": {"type": "DT_INT32"}, "T": {"type": "DT_FLOAT"}}, "experimentalType": {"typeId": "TFT_PRODUCT", "args": [{"typeId": "TFT_SHAPE_TENSOR", "args": [{"typeId": "TFT_INT32"}]}]}}, {"name": "StatefulPartitionedCall/sequential/bidirectional/forward_lstm/zeros_1/packed", "op": "Pack", "input": ["StatefulPartitionedCall/sequential/bidirectional/forward_lstm/strided_slice", "StatefulPartitionedCall/sequential/bidirectional/forward_lstm/zeros_1/packed/1"], "attr": {"T": {"type": "DT_INT32"}, "axis": {"i": "0"}, "N": {"i": "2"}}}, {"name": "StatefulPartitionedCall/sequential/bidirectional/forward_lstm/zeros/packed", "op": "Pack", "input": ["StatefulPartitionedCall/sequential/bidirectional/forward_lstm/strided_slice", "StatefulPartitionedCall/sequential/bidirectional/forward_lstm/zeros/packed/1"], "attr": {"N": {"i": "2"}, "axis": {"i": "0"}, "T": {"type": "DT_INT32"}}}, {"name": "StatefulPartitionedCall/sequential/bidirectional/forward_lstm/PartitionedCall/while/enter/_100", "op": "Enter", "input": ["StatefulPartitionedCall/sequential/bidirectional/forward_lstm/PartitionedCall/TensorArrayUnstack/TensorListFromTensor"], "attr": {"is_constant": {"b": false}, "parallel_iterations": {"i": "32"}, "T": {"type": "DT_VARIANT"}, "frame_name": {"s": "U3RhdGVmdWxQYXJ0aXRpb25lZENhbGwvc2VxdWVudGlhbC9iaWRpcmVjdGlvbmFsL2ZvcndhcmRfbHN0bS9QYXJ0aXRpb25lZENhbGwvd2hpbGU="}}}, {"name": "StatefulPartitionedCall/sequential/bidirectional/forward_lstm/PartitionedCall/strided_slice", "op": "StridedSlice", "input": ["StatefulPartitionedCall/sequential/bidirectional/forward_lstm/PartitionedCall/Shape", "StatefulPartitionedCall/sequential/bidirectional/forward_lstm/PartitionedCall/strided_slice/stack", "StatefulPartitionedCall/sequential/bidirectional/forward_lstm/PartitionedCall/strided_slice/stack_1", "StatefulPartitionedCall/sequential/bidirectional/forward_lstm/PartitionedCall/strided_slice/stack_2"], "attr": {"new_axis_mask": {"i": "0"}, "Index": {"type": "DT_INT32"}, "begin_mask": {"i": "0"}, "T": {"type": "DT_INT32"}, "ellipsis_mask": {"i": "0"}, "shrink_axis_mask": {"i": "1"}, "end_mask": {"i": "0"}}}, {"name": "StatefulPartitionedCall/sequential/bidirectional/backward_lstm/zeros_1/packed", "op": "Pack", "input": ["StatefulPartitionedCall/sequential/bidirectional/backward_lstm/strided_slice", "StatefulPartitionedCall/sequential/bidirectional/backward_lstm/zeros_1/packed/1"], "attr": {"axis": {"i": "0"}, "T": {"type": "DT_INT32"}, "N": {"i": "2"}}}, {"name": "StatefulPartitionedCall/sequential/bidirectional/backward_lstm/zeros/packed", "op": "Pack", "input": ["StatefulPartitionedCall/sequential/bidirectional/backward_lstm/strided_slice", "StatefulPartitionedCall/sequential/bidirectional/backward_lstm/zeros/packed/1"], "attr": {"axis": {"i": "0"}, "N": {"i": "2"}, "T": {"type": "DT_INT32"}}}, {"name": "StatefulPartitionedCall/sequential/bidirectional/backward_lstm/PartitionedCall/TensorArrayUnstack/TensorListFromTensor", "op": "TensorListFromTensor", "input": ["StatefulPartitionedCall/sequential/bidirectional/backward_lstm/PartitionedCall/ReverseV2", "StatefulPartitionedCall/sequential/bidirectional/backward_lstm/PartitionedCall/TensorArrayUnstack/TensorListFromTensor/element_shape"], "attr": {"element_dtype": {"type": "DT_FLOAT"}, "shape_type": {"type": "DT_INT32"}}, "experimentalType": {"typeId": "TFT_PRODUCT", "args": [{"typeId": "TFT_ARRAY", "args": [{"typeId": "TFT_TENSOR", "args": [{"typeId": "TFT_FLOAT"}]}]}]}}, {"name": "StatefulPartitionedCall/sequential/bidirectional/backward_lstm/PartitionedCall/strided_slice", "op": "StridedSlice", "input": ["StatefulPartitionedCall/sequential/bidirectional/backward_lstm/PartitionedCall/Shape", "StatefulPartitionedCall/sequential/bidirectional/backward_lstm/PartitionedCall/strided_slice/stack", "StatefulPartitionedCall/sequential/bidirectional/backward_lstm/PartitionedCall/strided_slice/stack_1", "StatefulPartitionedCall/sequential/bidirectional/backward_lstm/PartitionedCall/strided_slice/stack_2"], "attr": {"T": {"type": "DT_INT32"}, "end_mask": {"i": "0"}, "ellipsis_mask": {"i": "0"}, "begin_mask": {"i": "0"}, "new_axis_mask": {"i": "0"}, "shrink_axis_mask": {"i": "1"}, "Index": {"type": "DT_INT32"}}}, {"name": "StatefulPartitionedCall/sequential/bidirectional/forward_lstm/zeros_1", "op": "Fill", "input": ["StatefulPartitionedCall/sequential/bidirectional/forward_lstm/zeros_1/packed", "StatefulPartitionedCall/sequential/bidirectional/forward_lstm/zeros_1/Const"], "attr": {"index_type": {"type": "DT_INT32"}, "T": {"type": "DT_FLOAT"}}}, {"name": "StatefulPartitionedCall/sequential/bidirectional/forward_lstm/zeros", "op": "Fill", "input": ["StatefulPartitionedCall/sequential/bidirectional/forward_lstm/zeros/packed", "StatefulPartitionedCall/sequential/bidirectional/forward_lstm/zeros/Const"], "attr": {"T": {"type": "DT_FLOAT"}, "index_type": {"type": "DT_INT32"}}}, {"name": "StatefulPartitionedCall/sequential/bidirectional/forward_lstm/PartitionedCall/while/merge/_111", "op": "Merge", "input": ["StatefulPartitionedCall/sequential/bidirectional/forward_lstm/PartitionedCall/while/enter/_100", "StatefulPartitionedCall/sequential/bidirectional/forward_lstm/PartitionedCall/while/next_iteration/_147"], "attr": {"T": {"type": "DT_VARIANT"}, "N": {"i": "2"}}}, {"name": "StatefulPartitionedCall/sequential/bidirectional/forward_lstm/PartitionedCall/TensorArrayV2_1", "op": "TensorListReserve", "input": ["StatefulPartitionedCall/sequential/bidirectional/forward_lstm/PartitionedCall/TensorArrayV2_1/element_shape", "StatefulPartitionedCall/sequential/bidirectional/forward_lstm/PartitionedCall/strided_slice"], "attr": {"element_dtype": {"type": "DT_FLOAT"}, "shape_type": {"type": "DT_INT32"}}, "experimentalType": {"typeId": "TFT_PRODUCT", "args": [{"typeId": "TFT_ARRAY", "args": [{"typeId": "TFT_TENSOR", "args": [{"typeId": "TFT_FLOAT"}]}]}]}}, {"name": "StatefulPartitionedCall/sequential/bidirectional/forward_lstm/PartitionedCall/while/enter/_99", "op": "Enter", "input": ["StatefulPartitionedCall/sequential/bidirectional/forward_lstm/PartitionedCall/strided_slice"], "attr": {"T": {"type": "DT_INT32"}, "parallel_iterations": {"i": "32"}, "frame_name": {"s": "U3RhdGVmdWxQYXJ0aXRpb25lZENhbGwvc2VxdWVudGlhbC9iaWRpcmVjdGlvbmFsL2ZvcndhcmRfbHN0bS9QYXJ0aXRpb25lZENhbGwvd2hpbGU="}, "is_constant": {"b": false}}}, {"name": "StatefulPartitionedCall/sequential/bidirectional/backward_lstm/zeros_1", "op": "Fill", "input": ["StatefulPartitionedCall/sequential/bidirectional/backward_lstm/zeros_1/packed", "StatefulPartitionedCall/sequential/bidirectional/backward_lstm/zeros_1/Const"], "attr": {"T": {"type": "DT_FLOAT"}, "index_type": {"type": "DT_INT32"}}}, {"name": "StatefulPartitionedCall/sequential/bidirectional/backward_lstm/zeros", "op": "Fill", "input": ["StatefulPartitionedCall/sequential/bidirectional/backward_lstm/zeros/packed", "StatefulPartitionedCall/sequential/bidirectional/backward_lstm/zeros/Const"], "attr": {"index_type": {"type": "DT_INT32"}, "T": {"type": "DT_FLOAT"}}}, {"name": "StatefulPartitionedCall/sequential/bidirectional/backward_lstm/PartitionedCall/while/enter/_160", "op": "Enter", "input": ["StatefulPartitionedCall/sequential/bidirectional/backward_lstm/PartitionedCall/TensorArrayUnstack/TensorListFromTensor"], "attr": {"is_constant": {"b": false}, "parallel_iterations": {"i": "32"}, "T": {"type": "DT_VARIANT"}, "frame_name": {"s": "U3RhdGVmdWxQYXJ0aXRpb25lZENhbGwvc2VxdWVudGlhbC9iaWRpcmVjdGlvbmFsL2JhY2t3YXJkX2xzdG0vUGFydGl0aW9uZWRDYWxsL3doaWxl"}}}, {"name": "StatefulPartitionedCall/sequential/bidirectional/backward_lstm/PartitionedCall/TensorArrayV2_1", "op": "TensorListReserve", "input": ["StatefulPartitionedCall/sequential/bidirectional/backward_lstm/PartitionedCall/TensorArrayV2_1/element_shape", "StatefulPartitionedCall/sequential/bidirectional/backward_lstm/PartitionedCall/strided_slice"], "attr": {"element_dtype": {"type": "DT_FLOAT"}, "shape_type": {"type": "DT_INT32"}}, "experimentalType": {"typeId": "TFT_PRODUCT", "args": [{"typeId": "TFT_ARRAY", "args": [{"typeId": "TFT_TENSOR", "args": [{"typeId": "TFT_FLOAT"}]}]}]}}, {"name": "StatefulPartitionedCall/sequential/bidirectional/backward_lstm/PartitionedCall/while/enter/_159", "op": "Enter", "input": ["StatefulPartitionedCall/sequential/bidirectional/backward_lstm/PartitionedCall/strided_slice"], "attr": {"T": {"type": "DT_INT32"}, "frame_name": {"s": "U3RhdGVmdWxQYXJ0aXRpb25lZENhbGwvc2VxdWVudGlhbC9iaWRpcmVjdGlvbmFsL2JhY2t3YXJkX2xzdG0vUGFydGl0aW9uZWRDYWxsL3doaWxl"}, "parallel_iterations": {"i": "32"}, "is_constant": {"b": false}}}, {"name": "StatefulPartitionedCall/sequential/bidirectional/forward_lstm/PartitionedCall/while/enter/_98", "op": "Enter", "input": ["StatefulPartitionedCall/sequential/bidirectional/forward_lstm/zeros_1"], "attr": {"parallel_iterations": {"i": "32"}, "T": {"type": "DT_FLOAT"}, "is_constant": {"b": false}, "frame_name": {"s": "U3RhdGVmdWxQYXJ0aXRpb25lZENhbGwvc2VxdWVudGlhbC9iaWRpcmVjdGlvbmFsL2ZvcndhcmRfbHN0bS9QYXJ0aXRpb25lZENhbGwvd2hpbGU="}}}, {"name": "StatefulPartitionedCall/sequential/bidirectional/forward_lstm/PartitionedCall/while/enter/_97", "op": "Enter", "input": ["StatefulPartitionedCall/sequential/bidirectional/forward_lstm/zeros"], "attr": {"frame_name": {"s": "U3RhdGVmdWxQYXJ0aXRpb25lZENhbGwvc2VxdWVudGlhbC9iaWRpcmVjdGlvbmFsL2ZvcndhcmRfbHN0bS9QYXJ0aXRpb25lZENhbGwvd2hpbGU="}, "T": {"type": "DT_FLOAT"}, "parallel_iterations": {"i": "32"}, "is_constant": {"b": false}}}, {"name": "StatefulPartitionedCall/sequential/bidirectional/forward_lstm/PartitionedCall/while/enter/_96", "op": "Enter", "input": ["StatefulPartitionedCall/sequential/bidirectional/forward_lstm/PartitionedCall/TensorArrayV2_1"], "attr": {"parallel_iterations": {"i": "32"}, "frame_name": {"s": "U3RhdGVmdWxQYXJ0aXRpb25lZENhbGwvc2VxdWVudGlhbC9iaWRpcmVjdGlvbmFsL2ZvcndhcmRfbHN0bS9QYXJ0aXRpb25lZENhbGwvd2hpbGU="}, "is_constant": {"b": false}, "T": {"type": "DT_VARIANT"}}}, {"name": "StatefulPartitionedCall/sequential/bidirectional/forward_lstm/PartitionedCall/while/merge/_110", "op": "Merge", "input": ["StatefulPartitionedCall/sequential/bidirectional/forward_lstm/PartitionedCall/while/enter/_99", "StatefulPartitionedCall/sequential/bidirectional/forward_lstm/PartitionedCall/while/next_iteration/_146"], "attr": {"T": {"type": "DT_INT32"}, "N": {"i": "2"}}}, {"name": "StatefulPartitionedCall/sequential/bidirectional/backward_lstm/PartitionedCall/while/enter/_158", "op": "Enter", "input": ["StatefulPartitionedCall/sequential/bidirectional/backward_lstm/zeros_1"], "attr": {"is_constant": {"b": false}, "T": {"type": "DT_FLOAT"}, "parallel_iterations": {"i": "32"}, "frame_name": {"s": "U3RhdGVmdWxQYXJ0aXRpb25lZENhbGwvc2VxdWVudGlhbC9iaWRpcmVjdGlvbmFsL2JhY2t3YXJkX2xzdG0vUGFydGl0aW9uZWRDYWxsL3doaWxl"}}}, {"name": "StatefulPartitionedCall/sequential/bidirectional/backward_lstm/PartitionedCall/while/enter/_157", "op": "Enter", "input": ["StatefulPartitionedCall/sequential/bidirectional/backward_lstm/zeros"], "attr": {"parallel_iterations": {"i": "32"}, "frame_name": {"s": "U3RhdGVmdWxQYXJ0aXRpb25lZENhbGwvc2VxdWVudGlhbC9iaWRpcmVjdGlvbmFsL2JhY2t3YXJkX2xzdG0vUGFydGl0aW9uZWRDYWxsL3doaWxl"}, "is_constant": {"b": false}, "T": {"type": "DT_FLOAT"}}}, {"name": "StatefulPartitionedCall/sequential/bidirectional/backward_lstm/PartitionedCall/while/merge/_171", "op": "Merge", "input": ["StatefulPartitionedCall/sequential/bidirectional/backward_lstm/PartitionedCall/while/enter/_160", "StatefulPartitionedCall/sequential/bidirectional/backward_lstm/PartitionedCall/while/next_iteration/_207"], "attr": {"N": {"i": "2"}, "T": {"type": "DT_VARIANT"}}}, {"name": "StatefulPartitionedCall/sequential/bidirectional/backward_lstm/PartitionedCall/while/enter/_156", "op": "Enter", "input": ["StatefulPartitionedCall/sequential/bidirectional/backward_lstm/PartitionedCall/TensorArrayV2_1"], "attr": {"is_constant": {"b": false}, "T": {"type": "DT_VARIANT"}, "frame_name": {"s": "U3RhdGVmdWxQYXJ0aXRpb25lZENhbGwvc2VxdWVudGlhbC9iaWRpcmVjdGlvbmFsL2JhY2t3YXJkX2xzdG0vUGFydGl0aW9uZWRDYWxsL3doaWxl"}, "parallel_iterations": {"i": "32"}}}, {"name": "StatefulPartitionedCall/sequential/bidirectional/backward_lstm/PartitionedCall/while/merge/_170", "op": "Merge", "input": ["StatefulPartitionedCall/sequential/bidirectional/backward_lstm/PartitionedCall/while/enter/_159", "StatefulPartitionedCall/sequential/bidirectional/backward_lstm/PartitionedCall/while/next_iteration/_206"], "attr": {"N": {"i": "2"}, "T": {"type": "DT_INT32"}}}, {"name": "StatefulPartitionedCall/sequential/bidirectional/forward_lstm/PartitionedCall/while/merge/_109", "op": "Merge", "input": ["StatefulPartitionedCall/sequential/bidirectional/forward_lstm/PartitionedCall/while/enter/_98", "StatefulPartitionedCall/sequential/bidirectional/forward_lstm/PartitionedCall/while/next_iteration/_145"], "attr": {"T": {"type": "DT_FLOAT"}, "N": {"i": "2"}}}, {"name": "StatefulPartitionedCall/sequential/bidirectional/forward_lstm/PartitionedCall/while/merge/_108", "op": "Merge", "input": ["StatefulPartitionedCall/sequential/bidirectional/forward_lstm/PartitionedCall/while/enter/_97", "StatefulPartitionedCall/sequential/bidirectional/forward_lstm/PartitionedCall/while/next_iteration/_144"], "attr": {"N": {"i": "2"}, "T": {"type": "DT_FLOAT"}}}, {"name": "StatefulPartitionedCall/sequential/bidirectional/forward_lstm/PartitionedCall/while/merge/_107", "op": "Merge", "input": ["StatefulPartitionedCall/sequential/bidirectional/forward_lstm/PartitionedCall/while/enter/_96", "StatefulPartitionedCall/sequential/bidirectional/forward_lstm/PartitionedCall/while/next_iteration/_143"], "attr": {"T": {"type": "DT_VARIANT"}, "N": {"i": "2"}}}, {"name": "StatefulPartitionedCall/sequential/bidirectional/forward_lstm/PartitionedCall/while/cond/_91/while/Less", "op": "Less", "input": ["StatefulPartitionedCall/sequential/bidirectional/forward_lstm/PartitionedCall/while/merge/_106", "StatefulPartitionedCall/sequential/bidirectional/forward_lstm/PartitionedCall/while/merge/_110", "^StatefulPartitionedCall/sequential/bidirectional/forward_lstm/PartitionedCall/while/merge/_104"], "attr": {"T": {"type": "DT_INT32"}}}, {"name": "StatefulPartitionedCall/sequential/bidirectional/backward_lstm/PartitionedCall/while/merge/_169", "op": "Merge", "input": ["StatefulPartitionedCall/sequential/bidirectional/backward_lstm/PartitionedCall/while/enter/_158", "StatefulPartitionedCall/sequential/bidirectional/backward_lstm/PartitionedCall/while/next_iteration/_205"], "attr": {"T": {"type": "DT_FLOAT"}, "N": {"i": "2"}}}, {"name": "StatefulPartitionedCall/sequential/bidirectional/backward_lstm/PartitionedCall/while/merge/_168", "op": "Merge", "input": ["StatefulPartitionedCall/sequential/bidirectional/backward_lstm/PartitionedCall/while/enter/_157", "StatefulPartitionedCall/sequential/bidirectional/backward_lstm/PartitionedCall/while/next_iteration/_204"], "attr": {"T": {"type": "DT_FLOAT"}, "N": {"i": "2"}}}, {"name": "StatefulPartitionedCall/sequential/bidirectional/backward_lstm/PartitionedCall/while/merge/_167", "op": "Merge", "input": ["StatefulPartitionedCall/sequential/bidirectional/backward_lstm/PartitionedCall/while/enter/_156", "StatefulPartitionedCall/sequential/bidirectional/backward_lstm/PartitionedCall/while/next_iteration/_203"], "attr": {"N": {"i": "2"}, "T": {"type": "DT_VARIANT"}}}, {"name": "StatefulPartitionedCall/sequential/bidirectional/backward_lstm/PartitionedCall/while/cond/_151/while/Less", "op": "Less", "input": ["StatefulPartitionedCall/sequential/bidirectional/backward_lstm/PartitionedCall/while/merge/_166", "StatefulPartitionedCall/sequential/bidirectional/backward_lstm/PartitionedCall/while/merge/_170", "^StatefulPartitionedCall/sequential/bidirectional/backward_lstm/PartitionedCall/while/merge/_164"], "attr": {"T": {"type": "DT_INT32"}}}, {"name": "StatefulPartitionedCall/sequential/bidirectional/forward_lstm/PartitionedCall/while/LoopCond/_115", "op": "LoopCond", "input": ["StatefulPartitionedCall/sequential/bidirectional/forward_lstm/PartitionedCall/while/cond/_91/while/Less"]}, {"name": "StatefulPartitionedCall/sequential/bidirectional/backward_lstm/PartitionedCall/while/LoopCond/_175", "op": "LoopCond", "input": ["StatefulPartitionedCall/sequential/bidirectional/backward_lstm/PartitionedCall/while/cond/_151/while/Less"]}, {"name": "StatefulPartitionedCall/sequential/bidirectional/forward_lstm/PartitionedCall/while/Func/StatefulPartitionedCall/sequential/bidirectional/forward_lstm/PartitionedCall/input/_49_switch/_121", "op": "Switch", "input": ["StatefulPartitionedCall/sequential/bidirectional/forward_lstm/PartitionedCall/while/merge/_109", "StatefulPartitionedCall/sequential/bidirectional/forward_lstm/PartitionedCall/while/LoopCond/_115"], "attr": {"T": {"type": "DT_FLOAT"}}}, {"name": "StatefulPartitionedCall/sequential/bidirectional/forward_lstm/PartitionedCall/while/StatefulPartitionedCall/sequential/bidirectional/forward_lstm/PartitionedCall/TensorArrayUnstack/TensorListFromTensor_switch/_123", "op": "Switch", "input": ["StatefulPartitionedCall/sequential/bidirectional/forward_lstm/PartitionedCall/while/merge/_111", "StatefulPartitionedCall/sequential/bidirectional/forward_lstm/PartitionedCall/while/LoopCond/_115"], "attr": {"T": {"type": "DT_VARIANT"}}}, {"name": "StatefulPartitionedCall/sequential/bidirectional/forward_lstm/PartitionedCall/while/Func/StatefulPartitionedCall/sequential/bidirectional/forward_lstm/PartitionedCall/input/_50_switch/_124", "op": "Switch", "input": ["StatefulPartitionedCall/sequential/bidirectional/forward_lstm/PartitionedCall/while/merge/_112", "StatefulPartitionedCall/sequential/bidirectional/forward_lstm/PartitionedCall/while/LoopCond/_115"], "attr": {"T": {"type": "DT_FLOAT"}}}, {"name": "StatefulPartitionedCall/sequential/bidirectional/forward_lstm/PartitionedCall/while/Func/StatefulPartitionedCall/sequential/bidirectional/forward_lstm/PartitionedCall/input/_48_switch/_120", "op": "Switch", "input": ["StatefulPartitionedCall/sequential/bidirectional/forward_lstm/PartitionedCall/while/merge/_108", "StatefulPartitionedCall/sequential/bidirectional/forward_lstm/PartitionedCall/while/LoopCond/_115"], "attr": {"T": {"type": "DT_FLOAT"}}}, {"name": "StatefulPartitionedCall/sequential/bidirectional/forward_lstm/PartitionedCall/while/Func/StatefulPartitionedCall/sequential/bidirectional/forward_lstm/PartitionedCall/input/_51_switch/_125", "op": "Switch", "input": ["StatefulPartitionedCall/sequential/bidirectional/forward_lstm/PartitionedCall/while/merge/_113", "StatefulPartitionedCall/sequential/bidirectional/forward_lstm/PartitionedCall/while/LoopCond/_115"], "attr": {"T": {"type": "DT_FLOAT"}}}, {"name": "StatefulPartitionedCall/sequential/bidirectional/forward_lstm/PartitionedCall/while/Func/StatefulPartitionedCall/sequential/bidirectional/forward_lstm/PartitionedCall/input/_52_switch/_126", "op": "Switch", "input": ["StatefulPartitionedCall/sequential/bidirectional/forward_lstm/PartitionedCall/while/merge/_114", "StatefulPartitionedCall/sequential/bidirectional/forward_lstm/PartitionedCall/while/LoopCond/_115"], "attr": {"T": {"type": "DT_FLOAT"}}}, {"name": "StatefulPartitionedCall/sequential/bidirectional/forward_lstm/PartitionedCall/while/StatefulPartitionedCall/sequential/bidirectional/forward_lstm/PartitionedCall/time_switch/_118", "op": "Switch", "input": ["StatefulPartitionedCall/sequential/bidirectional/forward_lstm/PartitionedCall/while/merge/_106", "StatefulPartitionedCall/sequential/bidirectional/forward_lstm/PartitionedCall/while/LoopCond/_115"], "attr": {"T": {"type": "DT_INT32"}}}, {"name": "StatefulPartitionedCall/sequential/bidirectional/forward_lstm/PartitionedCall/while/StatefulPartitionedCall/sequential/bidirectional/forward_lstm/PartitionedCall/while/loop_counter_switch/_116", "op": "Switch", "input": ["StatefulPartitionedCall/sequential/bidirectional/forward_lstm/PartitionedCall/while/merge/_104", "StatefulPartitionedCall/sequential/bidirectional/forward_lstm/PartitionedCall/while/LoopCond/_115"], "attr": {"T": {"type": "DT_INT32"}}}, {"name": "StatefulPartitionedCall/sequential/bidirectional/forward_lstm/PartitionedCall/while/StatefulPartitionedCall/sequential/bidirectional/forward_lstm/PartitionedCall/TensorArrayV2_1_switch/_119", "op": "Switch", "input": ["StatefulPartitionedCall/sequential/bidirectional/forward_lstm/PartitionedCall/while/merge/_107", "StatefulPartitionedCall/sequential/bidirectional/forward_lstm/PartitionedCall/while/LoopCond/_115"], "attr": {"T": {"type": "DT_VARIANT"}}}, {"name": "StatefulPartitionedCall/sequential/bidirectional/forward_lstm/PartitionedCall/while/StatefulPartitionedCall/sequential/bidirectional/forward_lstm/PartitionedCall/strided_slice_switch/_122", "op": "Switch", "input": ["StatefulPartitionedCall/sequential/bidirectional/forward_lstm/PartitionedCall/while/merge/_110", "StatefulPartitionedCall/sequential/bidirectional/forward_lstm/PartitionedCall/while/LoopCond/_115"], "attr": {"T": {"type": "DT_INT32"}}}, {"name": "StatefulPartitionedCall/sequential/bidirectional/backward_lstm/PartitionedCall/while/Func/StatefulPartitionedCall/sequential/bidirectional/backward_lstm/PartitionedCall/input/_60_switch/_181", "op": "Switch", "input": ["StatefulPartitionedCall/sequential/bidirectional/backward_lstm/PartitionedCall/while/merge/_169", "StatefulPartitionedCall/sequential/bidirectional/backward_lstm/PartitionedCall/while/LoopCond/_175"], "attr": {"T": {"type": "DT_FLOAT"}}}, {"name": "StatefulPartitionedCall/sequential/bidirectional/backward_lstm/PartitionedCall/while/StatefulPartitionedCall/sequential/bidirectional/backward_lstm/PartitionedCall/TensorArrayUnstack/TensorListFromTensor_switch/_183", "op": "Switch", "input": ["StatefulPartitionedCall/sequential/bidirectional/backward_lstm/PartitionedCall/while/merge/_171", "StatefulPartitionedCall/sequential/bidirectional/backward_lstm/PartitionedCall/while/LoopCond/_175"], "attr": {"T": {"type": "DT_VARIANT"}}}, {"name": "StatefulPartitionedCall/sequential/bidirectional/backward_lstm/PartitionedCall/while/Func/StatefulPartitionedCall/sequential/bidirectional/backward_lstm/PartitionedCall/input/_61_switch/_184", "op": "Switch", "input": ["StatefulPartitionedCall/sequential/bidirectional/backward_lstm/PartitionedCall/while/merge/_172", "StatefulPartitionedCall/sequential/bidirectional/backward_lstm/PartitionedCall/while/LoopCond/_175"], "attr": {"T": {"type": "DT_FLOAT"}}}, {"name": "StatefulPartitionedCall/sequential/bidirectional/backward_lstm/PartitionedCall/while/Func/StatefulPartitionedCall/sequential/bidirectional/backward_lstm/PartitionedCall/input/_59_switch/_180", "op": "Switch", "input": ["StatefulPartitionedCall/sequential/bidirectional/backward_lstm/PartitionedCall/while/merge/_168", "StatefulPartitionedCall/sequential/bidirectional/backward_lstm/PartitionedCall/while/LoopCond/_175"], "attr": {"T": {"type": "DT_FLOAT"}}}, {"name": "StatefulPartitionedCall/sequential/bidirectional/backward_lstm/PartitionedCall/while/Func/StatefulPartitionedCall/sequential/bidirectional/backward_lstm/PartitionedCall/input/_62_switch/_185", "op": "Switch", "input": ["StatefulPartitionedCall/sequential/bidirectional/backward_lstm/PartitionedCall/while/merge/_173", "StatefulPartitionedCall/sequential/bidirectional/backward_lstm/PartitionedCall/while/LoopCond/_175"], "attr": {"T": {"type": "DT_FLOAT"}}}, {"name": "StatefulPartitionedCall/sequential/bidirectional/backward_lstm/PartitionedCall/while/Func/StatefulPartitionedCall/sequential/bidirectional/backward_lstm/PartitionedCall/input/_63_switch/_186", "op": "Switch", "input": ["StatefulPartitionedCall/sequential/bidirectional/backward_lstm/PartitionedCall/while/merge/_174", "StatefulPartitionedCall/sequential/bidirectional/backward_lstm/PartitionedCall/while/LoopCond/_175"], "attr": {"T": {"type": "DT_FLOAT"}}}, {"name": "StatefulPartitionedCall/sequential/bidirectional/backward_lstm/PartitionedCall/while/StatefulPartitionedCall/sequential/bidirectional/backward_lstm/PartitionedCall/time_switch/_178", "op": "Switch", "input": ["StatefulPartitionedCall/sequential/bidirectional/backward_lstm/PartitionedCall/while/merge/_166", "StatefulPartitionedCall/sequential/bidirectional/backward_lstm/PartitionedCall/while/LoopCond/_175"], "attr": {"T": {"type": "DT_INT32"}}}, {"name": "StatefulPartitionedCall/sequential/bidirectional/backward_lstm/PartitionedCall/while/StatefulPartitionedCall/sequential/bidirectional/backward_lstm/PartitionedCall/while/loop_counter_switch/_176", "op": "Switch", "input": ["StatefulPartitionedCall/sequential/bidirectional/backward_lstm/PartitionedCall/while/merge/_164", "StatefulPartitionedCall/sequential/bidirectional/backward_lstm/PartitionedCall/while/LoopCond/_175"], "attr": {"T": {"type": "DT_INT32"}}}, {"name": "StatefulPartitionedCall/sequential/bidirectional/backward_lstm/PartitionedCall/while/StatefulPartitionedCall/sequential/bidirectional/backward_lstm/PartitionedCall/TensorArrayV2_1_switch/_179", "op": "Switch", "input": ["StatefulPartitionedCall/sequential/bidirectional/backward_lstm/PartitionedCall/while/merge/_167", "StatefulPartitionedCall/sequential/bidirectional/backward_lstm/PartitionedCall/while/LoopCond/_175"], "attr": {"T": {"type": "DT_VARIANT"}}}, {"name": "StatefulPartitionedCall/sequential/bidirectional/backward_lstm/PartitionedCall/while/StatefulPartitionedCall/sequential/bidirectional/backward_lstm/PartitionedCall/strided_slice_switch/_182", "op": "Switch", "input": ["StatefulPartitionedCall/sequential/bidirectional/backward_lstm/PartitionedCall/while/merge/_170", "StatefulPartitionedCall/sequential/bidirectional/backward_lstm/PartitionedCall/while/LoopCond/_175"], "attr": {"T": {"type": "DT_INT32"}}}, {"name": "StatefulPartitionedCall/sequential/bidirectional/forward_lstm/PartitionedCall/while/loop_body_control/_127", "op": "Identity", "input": ["StatefulPartitionedCall/sequential/bidirectional/forward_lstm/PartitionedCall/while/StatefulPartitionedCall/sequential/bidirectional/forward_lstm/PartitionedCall/while/loop_counter_switch/_116:1"], "attr": {"T": {"type": "DT_INT32"}, "_has_manual_control_dependencies": {"b": true}}}, {"name": "StatefulPartitionedCall/sequential/bidirectional/forward_lstm/PartitionedCall/while/exit/_131", "op": "Exit", "input": ["StatefulPartitionedCall/sequential/bidirectional/forward_lstm/PartitionedCall/while/StatefulPartitionedCall/sequential/bidirectional/forward_lstm/PartitionedCall/TensorArrayV2_1_switch/_119"], "attr": {"T": {"type": "DT_VARIANT"}}}, {"name": "StatefulPartitionedCall/sequential/bidirectional/backward_lstm/PartitionedCall/while/loop_body_control/_187", "op": "Identity", "input": ["StatefulPartitionedCall/sequential/bidirectional/backward_lstm/PartitionedCall/while/StatefulPartitionedCall/sequential/bidirectional/backward_lstm/PartitionedCall/while/loop_counter_switch/_176:1"], "attr": {"_has_manual_control_dependencies": {"b": true}, "T": {"type": "DT_INT32"}}}, {"name": "StatefulPartitionedCall/sequential/bidirectional/backward_lstm/PartitionedCall/while/exit/_191", "op": "Exit", "input": ["StatefulPartitionedCall/sequential/bidirectional/backward_lstm/PartitionedCall/while/StatefulPartitionedCall/sequential/bidirectional/backward_lstm/PartitionedCall/TensorArrayV2_1_switch/_179"], "attr": {"T": {"type": "DT_VARIANT"}}}, {"name": "StatefulPartitionedCall/sequential/bidirectional/forward_lstm/PartitionedCall/while/body/_92/while/split/split_dim", "op": "Const", "input": ["^StatefulPartitionedCall/sequential/bidirectional/forward_lstm/PartitionedCall/while/loop_body_control/_127"], "attr": {"value": {"tensor": {"dtype": "DT_INT32", "tensorShape": {}}}, "dtype": {"type": "DT_INT32"}}}, {"name": "StatefulPartitionedCall/sequential/bidirectional/forward_lstm/PartitionedCall/while/next_iteration/_147", "op": "NextIteration", "input": ["StatefulPartitionedCall/sequential/bidirectional/forward_lstm/PartitionedCall/while/StatefulPartitionedCall/sequential/bidirectional/forward_lstm/PartitionedCall/TensorArrayUnstack/TensorListFromTensor_switch/_123:1", "^StatefulPartitionedCall/sequential/bidirectional/forward_lstm/PartitionedCall/while/loop_body_control/_127"], "attr": {"T": {"type": "DT_VARIANT"}}}, {"name": "StatefulPartitionedCall/sequential/bidirectional/forward_lstm/PartitionedCall/while/body/_92/while/TensorArrayV2Read/TensorListGetItem/element_shape", "op": "Const", "input": ["^StatefulPartitionedCall/sequential/bidirectional/forward_lstm/PartitionedCall/while/loop_body_control/_127"], "attr": {"value": {"tensor": {"dtype": "DT_INT32", "tensorShape": {"dim": [{"size": "2"}]}}}, "dtype": {"type": "DT_INT32"}}}, {"name": "StatefulPartitionedCall/sequential/bidirectional/forward_lstm/PartitionedCall/while/next_iteration/_148", "op": "NextIteration", "input": ["StatefulPartitionedCall/sequential/bidirectional/forward_lstm/PartitionedCall/while/Func/StatefulPartitionedCall/sequential/bidirectional/forward_lstm/PartitionedCall/input/_50_switch/_124:1", "^StatefulPartitionedCall/sequential/bidirectional/forward_lstm/PartitionedCall/while/loop_body_control/_127"], "attr": {"T": {"type": "DT_FLOAT"}}}, {"name": "StatefulPartitionedCall/sequential/bidirectional/forward_lstm/PartitionedCall/while/next_iteration/_149", "op": "NextIteration", "input": ["StatefulPartitionedCall/sequential/bidirectional/forward_lstm/PartitionedCall/while/Func/StatefulPartitionedCall/sequential/bidirectional/forward_lstm/PartitionedCall/input/_51_switch/_125:1", "^StatefulPartitionedCall/sequential/bidirectional/forward_lstm/PartitionedCall/while/loop_body_control/_127"], "attr": {"T": {"type": "DT_FLOAT"}}}, {"name": "StatefulPartitionedCall/sequential/bidirectional/forward_lstm/PartitionedCall/while/body/_92/while/MatMul_1", "op": "MatMul", "input": ["StatefulPartitionedCall/sequential/bidirectional/forward_lstm/PartitionedCall/while/Func/StatefulPartitionedCall/sequential/bidirectional/forward_lstm/PartitionedCall/input/_48_switch/_120:1", "StatefulPartitionedCall/sequential/bidirectional/forward_lstm/PartitionedCall/while/Func/StatefulPartitionedCall/sequential/bidirectional/forward_lstm/PartitionedCall/input/_51_switch/_125:1", "^StatefulPartitionedCall/sequential/bidirectional/forward_lstm/PartitionedCall/while/loop_body_control/_127"], "device": "/device:CPU:0", "attr": {"transpose_a": {"b": false}, "grad_b": {"b": false}, "transpose_b": {"b": false}, "T": {"type": "DT_FLOAT"}, "grad_a": {"b": false}}}, {"name": "StatefulPartitionedCall/sequential/bidirectional/forward_lstm/PartitionedCall/while/next_iteration/_150", "op": "NextIteration", "input": ["StatefulPartitionedCall/sequential/bidirectional/forward_lstm/PartitionedCall/while/Func/StatefulPartitionedCall/sequential/bidirectional/forward_lstm/PartitionedCall/input/_52_switch/_126:1", "^StatefulPartitionedCall/sequential/bidirectional/forward_lstm/PartitionedCall/while/loop_body_control/_127"], "attr": {"T": {"type": "DT_FLOAT"}}}, {"name": "Func/StatefulPartitionedCall/sequential/bidirectional/forward_lstm/PartitionedCall/while/body/_92/input/_347", "op": "Identity", "input": ["StatefulPartitionedCall/sequential/bidirectional/forward_lstm/PartitionedCall/while/StatefulPartitionedCall/sequential/bidirectional/forward_lstm/PartitionedCall/time_switch/_118:1", "^StatefulPartitionedCall/sequential/bidirectional/forward_lstm/PartitionedCall/while/loop_body_control/_127"], "attr": {"T": {"type": "DT_INT32"}}}, {"name": "StatefulPartitionedCall/sequential/bidirectional/forward_lstm/PartitionedCall/while/body/_92/while/add_2/y", "op": "Const", "input": ["^StatefulPartitionedCall/sequential/bidirectional/forward_lstm/PartitionedCall/while/loop_body_control/_127"], "attr": {"value": {"tensor": {"dtype": "DT_INT32", "tensorShape": {}}}, "dtype": {"type": "DT_INT32"}}}, {"name": "StatefulPartitionedCall/sequential/bidirectional/forward_lstm/PartitionedCall/while/body/_92/while/add_3/y", "op": "Const", "input": ["^StatefulPartitionedCall/sequential/bidirectional/forward_lstm/PartitionedCall/while/loop_body_control/_127"], "attr": {"value": {"tensor": {"dtype": "DT_INT32", "tensorShape": {}}}, "dtype": {"type": "DT_INT32"}}}, {"name": "StatefulPartitionedCall/sequential/bidirectional/forward_lstm/PartitionedCall/while/next_iteration/_146", "op": "NextIteration", "input": ["StatefulPartitionedCall/sequential/bidirectional/forward_lstm/PartitionedCall/while/StatefulPartitionedCall/sequential/bidirectional/forward_lstm/PartitionedCall/strided_slice_switch/_122:1", "^StatefulPartitionedCall/sequential/bidirectional/forward_lstm/PartitionedCall/while/loop_body_control/_127"], "attr": {"T": {"type": "DT_INT32"}}}, {"name": "StatefulPartitionedCall/sequential/bidirectional/forward_lstm/PartitionedCall/TensorArrayV2Stack/TensorListStack", "op": "TensorListStack", "input": ["StatefulPartitionedCall/sequential/bidirectional/forward_lstm/PartitionedCall/while/exit/_131", "StatefulPartitionedCall/sequential/bidirectional/forward_lstm/PartitionedCall/TensorArrayV2Stack/TensorListStack/element_shape"], "attr": {"element_dtype": {"type": "DT_FLOAT"}, "num_elements": {"i": "-1"}}}, {"name": "StatefulPartitionedCall/sequential/bidirectional/backward_lstm/PartitionedCall/while/body/_152/while/split/split_dim", "op": "Const", "input": ["^StatefulPartitionedCall/sequential/bidirectional/backward_lstm/PartitionedCall/while/loop_body_control/_187"], "attr": {"dtype": {"type": "DT_INT32"}, "value": {"tensor": {"dtype": "DT_INT32", "tensorShape": {}}}}}, {"name": "StatefulPartitionedCall/sequential/bidirectional/backward_lstm/PartitionedCall/while/next_iteration/_207", "op": "NextIteration", "input": ["StatefulPartitionedCall/sequential/bidirectional/backward_lstm/PartitionedCall/while/StatefulPartitionedCall/sequential/bidirectional/backward_lstm/PartitionedCall/TensorArrayUnstack/TensorListFromTensor_switch/_183:1", "^StatefulPartitionedCall/sequential/bidirectional/backward_lstm/PartitionedCall/while/loop_body_control/_187"], "attr": {"T": {"type": "DT_VARIANT"}}}, {"name": "StatefulPartitionedCall/sequent…
onedCall/sequential/bidirectional_1/backward_lstm_1/PartitionedCall/while/StatefulPartitionedCall/sequential/bidirectional_1/backward_lstm_1/PartitionedCall/time_switch/_298:1", "StatefulPartitionedCall/sequential/bidirectional_1/backward_lstm_1/PartitionedCall/while/body/_272/while/add_2/y"], "attr": {"T": {"type": "DT_INT32"}}}, {"name": "StatefulPartitionedCall/sequential/bidirectional_1/backward_lstm_1/PartitionedCall/while/body/_272/while/add_3", "op": "AddV2", "input": ["StatefulPartitionedCall/sequential/bidirectional_1/backward_lstm_1/PartitionedCall/while/StatefulPartitionedCall/sequential/bidirectional_1/backward_lstm_1/PartitionedCall/while/loop_counter_switch/_296:1", "StatefulPartitionedCall/sequential/bidirectional_1/backward_lstm_1/PartitionedCall/while/body/_272/while/add_3/y"], "attr": {"T": {"type": "DT_INT32"}}}, {"name": "StatefulPartitionedCall/sequential/bidirectional_1/backward_lstm_1/PartitionedCall/strided_slice_2", "op": "StridedSlice", "input": ["StatefulPartitionedCall/sequential/bidirectional_1/backward_lstm_1/PartitionedCall/TensorArrayV2Stack/TensorListStack", "StatefulPartitionedCall/sequential/bidirectional_1/backward_lstm_1/PartitionedCall/strided_slice_2/stack", "StatefulPartitionedCall/sequential/bidirectional_1/backward_lstm_1/PartitionedCall/strided_slice_2/stack_1", "StatefulPartitionedCall/sequential/bidirectional_1/backward_lstm_1/PartitionedCall/strided_slice_2/stack_2"], "attr": {"end_mask": {"i": "0"}, "Index": {"type": "DT_INT32"}, "shrink_axis_mask": {"i": "1"}, "new_axis_mask": {"i": "0"}, "ellipsis_mask": {"i": "0"}, "T": {"type": "DT_FLOAT"}, "begin_mask": {"i": "0"}}}, {"name": "StatefulPartitionedCall/sequential/bidirectional_1/forward_lstm_1/PartitionedCall/while/body/_212/while/add", "op": "_FusedMatMul", "input": ["StatefulPartitionedCall/sequential/bidirectional_1/forward_lstm_1/PartitionedCall/while/body/_212/while/TensorArrayV2Read/TensorListGetItem", "StatefulPartitionedCall/sequential/bidirectional_1/forward_lstm_1/PartitionedCall/while/Func/StatefulPartitionedCall/sequential/bidirectional_1/forward_lstm_1/PartitionedCall/input/_72_switch/_244:1", "StatefulPartitionedCall/sequential/bidirectional_1/forward_lstm_1/PartitionedCall/while/body/_212/while/MatMul_1"], "device": "/device:CPU:0", "attr": {"epsilon": {"f": 0.0}, "leakyrelu_alpha": {"f": 0.2}, "fused_ops": {"list": {"s": ["Qmlhc0FkZA=="]}}, "transpose_b": {"b": false}, "transpose_a": {"b": false}, "T": {"type": "DT_FLOAT"}, "num_args": {"i": "1"}}}, {"name": "StatefulPartitionedCall/sequential/bidirectional_1/forward_lstm_1/PartitionedCall/while/next_iteration/_262", "op": "NextIteration", "input": ["StatefulPartitionedCall/sequential/bidirectional_1/forward_lstm_1/PartitionedCall/while/body/_212/while/add_2", "^StatefulPartitionedCall/sequential/bidirectional_1/forward_lstm_1/PartitionedCall/while/loop_body_control/_247"], "attr": {"T": {"type": "DT_INT32"}}}, {"name": "StatefulPartitionedCall/sequential/bidirectional_1/forward_lstm_1/PartitionedCall/while/next_iteration/_260", "op": "NextIteration", "input": ["StatefulPartitionedCall/sequential/bidirectional_1/forward_lstm_1/PartitionedCall/while/body/_212/while/add_3", "^StatefulPartitionedCall/sequential/bidirectional_1/forward_lstm_1/PartitionedCall/while/loop_body_control/_247"], "attr": {"T": {"type": "DT_INT32"}}}, {"name": "StatefulPartitionedCall/sequential/bidirectional_1/backward_lstm_1/PartitionedCall/while/body/_272/while/add", "op": "_FusedMatMul", "input": ["StatefulPartitionedCall/sequential/bidirectional_1/backward_lstm_1/PartitionedCall/while/body/_272/while/TensorArrayV2Read/TensorListGetItem", "StatefulPartitionedCall/sequential/bidirectional_1/backward_lstm_1/PartitionedCall/while/Func/StatefulPartitionedCall/sequential/bidirectional_1/backward_lstm_1/PartitionedCall/input/_83_switch/_304:1", "StatefulPartitionedCall/sequential/bidirectional_1/backward_lstm_1/PartitionedCall/while/body/_272/while/MatMul_1"], "device": "/device:CPU:0", "attr": {"T": {"type": "DT_FLOAT"}, "leakyrelu_alpha": {"f": 0.2}, "transpose_a": {"b": false}, "epsilon": {"f": 0.0}, "fused_ops": {"list": {"s": ["Qmlhc0FkZA=="]}}, "num_args": {"i": "1"}, "transpose_b": {"b": false}}}, {"name": "StatefulPartitionedCall/sequential/bidirectional_1/backward_lstm_1/PartitionedCall/while/next_iteration/_322", "op": "NextIteration", "input": ["StatefulPartitionedCall/sequential/bidirectional_1/backward_lstm_1/PartitionedCall/while/body/_272/while/add_2", "^StatefulPartitionedCall/sequential/bidirectional_1/backward_lstm_1/PartitionedCall/while/loop_body_control/_307"], "attr": {"T": {"type": "DT_INT32"}}}, {"name": "StatefulPartitionedCall/sequential/bidirectional_1/backward_lstm_1/PartitionedCall/while/next_iteration/_320", "op": "NextIteration", "input": ["StatefulPartitionedCall/sequential/bidirectional_1/backward_lstm_1/PartitionedCall/while/body/_272/while/add_3", "^StatefulPartitionedCall/sequential/bidirectional_1/backward_lstm_1/PartitionedCall/while/loop_body_control/_307"], "attr": {"T": {"type": "DT_INT32"}}}, {"name": "StatefulPartitionedCall/sequential/bidirectional_1/concat", "op": "ConcatV2", "input": ["StatefulPartitionedCall/sequential/bidirectional_1/forward_lstm_1/PartitionedCall/strided_slice_2", "StatefulPartitionedCall/sequential/bidirectional_1/backward_lstm_1/PartitionedCall/strided_slice_2", "StatefulPartitionedCall/sequential/bidirectional_1/concat/axis"], "attr": {"Tidx": {"type": "DT_INT32"}, "T": {"type": "DT_FLOAT"}, "N": {"i": "2"}}}, {"name": "StatefulPartitionedCall/sequential/bidirectional_1/forward_lstm_1/PartitionedCall/while/body/_212/while/BiasAdd", "op": "BiasAdd", "input": ["StatefulPartitionedCall/sequential/bidirectional_1/forward_lstm_1/PartitionedCall/while/body/_212/while/add", "StatefulPartitionedCall/sequential/bidirectional_1/forward_lstm_1/PartitionedCall/while/Func/StatefulPartitionedCall/sequential/bidirectional_1/forward_lstm_1/PartitionedCall/input/_74_switch/_246:1"], "attr": {"T": {"type": "DT_FLOAT"}, "data_format": {"s": "TkhXQw=="}}}, {"name": "StatefulPartitionedCall/sequential/bidirectional_1/backward_lstm_1/PartitionedCall/while/body/_272/while/BiasAdd", "op": "BiasAdd", "input": ["StatefulPartitionedCall/sequential/bidirectional_1/backward_lstm_1/PartitionedCall/while/body/_272/while/add", "StatefulPartitionedCall/sequential/bidirectional_1/backward_lstm_1/PartitionedCall/while/Func/StatefulPartitionedCall/sequential/bidirectional_1/backward_lstm_1/PartitionedCall/input/_85_switch/_306:1"], "attr": {"data_format": {"s": "TkhXQw=="}, "T": {"type": "DT_FLOAT"}}}, {"name": "StatefulPartitionedCall/sequential/dense/Relu", "op": "_FusedMatMul", "input": ["StatefulPartitionedCall/sequential/bidirectional_1/concat", "StatefulPartitionedCall/sequential/dense/MatMul/ReadVariableOp", "StatefulPartitionedCall/sequential/dense/BiasAdd/ReadVariableOp"], "device": "/device:CPU:0", "attr": {"T": {"type": "DT_FLOAT"}, "transpose_a": {"b": false}, "transpose_b": {"b": false}, "leakyrelu_alpha": {"f": 0.2}, "num_args": {"i": "1"}, "fused_ops": {"list": {"s": ["Qmlhc0FkZA==", "UmVsdQ=="]}}, "epsilon": {"f": 0.0}}}, {"name": "StatefulPartitionedCall/sequential/bidirectional_1/forward_lstm_1/PartitionedCall/while/body/_212/while/split", "op": "Split", "input": ["StatefulPartitionedCall/sequential/bidirectional_1/forward_lstm_1/PartitionedCall/while/body/_212/while/split/split_dim", "StatefulPartitionedCall/sequential/bidirectional_1/forward_lstm_1/PartitionedCall/while/body/_212/while/BiasAdd"], "attr": {"T": {"type": "DT_FLOAT"}, "num_split": {"i": "4"}}}, {"name": "StatefulPartitionedCall/sequential/bidirectional_1/backward_lstm_1/PartitionedCall/while/body/_272/while/split", "op": "Split", "input": ["StatefulPartitionedCall/sequential/bidirectional_1/backward_lstm_1/PartitionedCall/while/body/_272/while/split/split_dim", "StatefulPartitionedCall/sequential/bidirectional_1/backward_lstm_1/PartitionedCall/while/body/_272/while/BiasAdd"], "attr": {"num_split": {"i": "4"}, "T": {"type": "DT_FLOAT"}}}, {"name": "StatefulPartitionedCall/sequential/dense_1/BiasAdd", "op": "_FusedMatMul", "input": ["StatefulPartitionedCall/sequential/dense/Relu", "StatefulPartitionedCall/sequential/dense_1/MatMul/ReadVariableOp", "StatefulPartitionedCall/sequential/dense_1/BiasAdd/ReadVariableOp"], "device": "/device:CPU:0", "attr": {"fused_ops": {"list": {"s": ["Qmlhc0FkZA=="]}}, "num_args": {"i": "1"}, "transpose_b": {"b": false}, "epsilon": {"f": 0.0}, "T": {"type": "DT_FLOAT"}, "leakyrelu_alpha": {"f": 0.2}, "transpose_a": {"b": false}}}, {"name": "StatefulPartitionedCall/sequential/bidirectional_1/forward_lstm_1/PartitionedCall/while/body/_212/while/Sigmoid", "op": "Sigmoid", "input": ["StatefulPartitionedCall/sequential/bidirectional_1/forward_lstm_1/PartitionedCall/while/body/_212/while/split"], "attr": {"T": {"type": "DT_FLOAT"}}}, {"name": "StatefulPartitionedCall/sequential/bidirectional_1/forward_lstm_1/PartitionedCall/while/body/_212/while/Sigmoid_1", "op": "Sigmoid", "input": ["StatefulPartitionedCall/sequential/bidirectional_1/forward_lstm_1/PartitionedCall/while/body/_212/while/split:1"], "attr": {"T": {"type": "DT_FLOAT"}}}, {"name": "StatefulPartitionedCall/sequential/bidirectional_1/forward_lstm_1/PartitionedCall/while/body/_212/while/Tanh", "op": "Tanh", "input": ["StatefulPartitionedCall/sequential/bidirectional_1/forward_lstm_1/PartitionedCall/while/body/_212/while/split:2"], "attr": {"T": {"type": "DT_FLOAT"}}}, {"name": "StatefulPartitionedCall/sequential/bidirectional_1/forward_lstm_1/PartitionedCall/while/body/_212/while/Sigmoid_2", "op": "Sigmoid", "input": ["StatefulPartitionedCall/sequential/bidirectional_1/forward_lstm_1/PartitionedCall/while/body/_212/while/split:3"], "attr": {"T": {"type": "DT_FLOAT"}}}, {"name": "StatefulPartitionedCall/sequential/bidirectional_1/backward_lstm_1/PartitionedCall/while/body/_272/while/Sigmoid", "op": "Sigmoid", "input": ["StatefulPartitionedCall/sequential/bidirectional_1/backward_lstm_1/PartitionedCall/while/body/_272/while/split"], "attr": {"T": {"type": "DT_FLOAT"}}}, {"name": "StatefulPartitionedCall/sequential/bidirectional_1/backward_lstm_1/PartitionedCall/while/body/_272/while/Sigmoid_1", "op": "Sigmoid", "input": ["StatefulPartitionedCall/sequential/bidirectional_1/backward_lstm_1/PartitionedCall/while/body/_272/while/split:1"], "attr": {"T": {"type": "DT_FLOAT"}}}, {"name": "StatefulPartitionedCall/sequential/bidirectional_1/backward_lstm_1/PartitionedCall/while/body/_272/while/Tanh", "op": "Tanh", "input": ["StatefulPartitionedCall/sequential/bidirectional_1/backward_lstm_1/PartitionedCall/while/body/_272/while/split:2"], "attr": {"T": {"type": "DT_FLOAT"}}}, {"name": "StatefulPartitionedCall/sequential/bidirectional_1/backward_lstm_1/PartitionedCall/while/body/_272/while/Sigmoid_2", "op": "Sigmoid", "input": ["StatefulPartitionedCall/sequential/bidirectional_1/backward_lstm_1/PartitionedCall/while/body/_272/while/split:3"], "attr": {"T": {"type": "DT_FLOAT"}}}, {"name": "StatefulPartitionedCall/sequential/dense_1/Sigmoid", "op": "Sigmoid", "input": ["StatefulPartitionedCall/sequential/dense_1/BiasAdd"], "attr": {"T": {"type": "DT_FLOAT"}}}, {"name": "StatefulPartitionedCall/sequential/bidirectional_1/forward_lstm_1/PartitionedCall/while/body/_212/while/mul", "op": "Mul", "input": ["StatefulPartitionedCall/sequential/bidirectional_1/forward_lstm_1/PartitionedCall/while/body/_212/while/Sigmoid_1", "StatefulPartitionedCall/sequential/bidirectional_1/forward_lstm_1/PartitionedCall/while/Func/StatefulPartitionedCall/sequential/bidirectional_1/forward_lstm_1/PartitionedCall/input/_71_switch/_241:1"], "attr": {"T": {"type": "DT_FLOAT"}}}, {"name": "StatefulPartitionedCall/sequential/bidirectional_1/forward_lstm_1/PartitionedCall/while/body/_212/while/mul_1", "op": "Mul", "input": ["StatefulPartitionedCall/sequential/bidirectional_1/forward_lstm_1/PartitionedCall/while/body/_212/while/Sigmoid", "StatefulPartitionedCall/sequential/bidirectional_1/forward_lstm_1/PartitionedCall/while/body/_212/while/Tanh"], "attr": {"T": {"type": "DT_FLOAT"}}}, {"name": "StatefulPartitionedCall/sequential/bidirectional_1/backward_lstm_1/PartitionedCall/while/body/_272/while/mul", "op": "Mul", "input": ["StatefulPartitionedCall/sequential/bidirectional_1/backward_lstm_1/PartitionedCall/while/body/_272/while/Sigmoid_1", "StatefulPartitionedCall/sequential/bidirectional_1/backward_lstm_1/PartitionedCall/while/Func/StatefulPartitionedCall/sequential/bidirectional_1/backward_lstm_1/PartitionedCall/input/_82_switch/_301:1"], "attr": {"T": {"type": "DT_FLOAT"}}}, {"name": "StatefulPartitionedCall/sequential/bidirectional_1/backward_lstm_1/PartitionedCall/while/body/_272/while/mul_1", "op": "Mul", "input": ["StatefulPartitionedCall/sequential/bidirectional_1/backward_lstm_1/PartitionedCall/while/body/_272/while/Sigmoid", "StatefulPartitionedCall/sequential/bidirectional_1/backward_lstm_1/PartitionedCall/while/body/_272/while/Tanh"], "attr": {"T": {"type": "DT_FLOAT"}}}, {"name": "Identity", "op": "Identity", "input": ["StatefulPartitionedCall/sequential/dense_1/Sigmoid"], "attr": {"T": {"type": "DT_FLOAT"}}}, {"name": "StatefulPartitionedCall/sequential/bidirectional_1/forward_lstm_1/PartitionedCall/while/body/_212/while/add_1", "op": "AddV2", "input": ["StatefulPartitionedCall/sequential/bidirectional_1/forward_lstm_1/PartitionedCall/while/body/_212/while/mul", "StatefulPartitionedCall/sequential/bidirectional_1/forward_lstm_1/PartitionedCall/while/body/_212/while/mul_1"], "attr": {"T": {"type": "DT_FLOAT"}}}, {"name": "StatefulPartitionedCall/sequential/bidirectional_1/backward_lstm_1/PartitionedCall/while/body/_272/while/add_1", "op": "AddV2", "input": ["StatefulPartitionedCall/sequential/bidirectional_1/backward_lstm_1/PartitionedCall/while/body/_272/while/mul", "StatefulPartitionedCall/sequential/bidirectional_1/backward_lstm_1/PartitionedCall/while/body/_272/while/mul_1"], "attr": {"T": {"type": "DT_FLOAT"}}}, {"name": "StatefulPartitionedCall/sequential/bidirectional_1/forward_lstm_1/PartitionedCall/while/body/_212/while/Tanh_1", "op": "Tanh", "input": ["StatefulPartitionedCall/sequential/bidirectional_1/forward_lstm_1/PartitionedCall/while/body/_212/while/add_1"], "attr": {"T": {"type": "DT_FLOAT"}}}, {"name": "StatefulPartitionedCall/sequential/bidirectional_1/forward_lstm_1/PartitionedCall/while/next_iteration/_265", "op": "NextIteration", "input": ["StatefulPartitionedCall/sequential/bidirectional_1/forward_lstm_1/PartitionedCall/while/body/_212/while/add_1", "^StatefulPartitionedCall/sequential/bidirectional_1/forward_lstm_1/PartitionedCall/while/loop_body_control/_247"], "attr": {"T": {"type": "DT_FLOAT"}}}, {"name": "StatefulPartitionedCall/sequential/bidirectional_1/backward_lstm_1/PartitionedCall/while/body/_272/while/Tanh_1", "op": "Tanh", "input": ["StatefulPartitionedCall/sequential/bidirectional_1/backward_lstm_1/PartitionedCall/while/body/_272/while/add_1"], "attr": {"T": {"type": "DT_FLOAT"}}}, {"name": "StatefulPartitionedCall/sequential/bidirectional_1/backward_lstm_1/PartitionedCall/while/next_iteration/_325", "op": "NextIteration", "input": ["StatefulPartitionedCall/sequential/bidirectional_1/backward_lstm_1/PartitionedCall/while/body/_272/while/add_1", "^StatefulPartitionedCall/sequential/bidirectional_1/backward_lstm_1/PartitionedCall/while/loop_body_control/_307"], "attr": {"T": {"type": "DT_FLOAT"}}}, {"name": "StatefulPartitionedCall/sequential/bidirectional_1/forward_lstm_1/PartitionedCall/while/body/_212/while/mul_2", "op": "Mul", "input": ["StatefulPartitionedCall/sequential/bidirectional_1/forward_lstm_1/PartitionedCall/while/body/_212/while/Sigmoid_2", "StatefulPartitionedCall/sequential/bidirectional_1/forward_lstm_1/PartitionedCall/while/body/_212/while/Tanh_1"], "attr": {"T": {"type": "DT_FLOAT"}}}, {"name": "StatefulPartitionedCall/sequential/bidirectional_1/backward_lstm_1/PartitionedCall/while/body/_272/while/mul_2", "op": "Mul", "input": ["StatefulPartitionedCall/sequential/bidirectional_1/backward_lstm_1/PartitionedCall/while/body/_272/while/Sigmoid_2", "StatefulPartitionedCall/sequential/bidirectional_1/backward_lstm_1/PartitionedCall/while/body/_272/while/Tanh_1"], "attr": {"T": {"type": "DT_FLOAT"}}}, {"name": "StatefulPartitionedCall/sequential/bidirectional_1/forward_lstm_1/PartitionedCall/while/next_iteration/_264", "op": "NextIteration", "input": ["StatefulPartitionedCall/sequential/bidirectional_1/forward_lstm_1/PartitionedCall/while/body/_212/while/mul_2", "^StatefulPartitionedCall/sequential/bidirectional_1/forward_lstm_1/PartitionedCall/while/loop_body_control/_247"], "attr": {"T": {"type": "DT_FLOAT"}}}, {"name": "StatefulPartitionedCall/sequential/bidirectional_1/forward_lstm_1/PartitionedCall/while/body/_212/while/TensorArrayV2Write/TensorListSetItem", "op": "TensorListSetItem", "input": ["StatefulPartitionedCall/sequential/bidirectional_1/forward_lstm_1/PartitionedCall/while/StatefulPartitionedCall/sequential/bidirectional_1/forward_lstm_1/PartitionedCall/TensorArrayV2_1_switch/_239:1", "StatefulPartitionedCall/sequential/bidirectional_1/forward_lstm_1/PartitionedCall/while/body/_212/while/TensorArrayV2Write/TensorListSetItem/index", "StatefulPartitionedCall/sequential/bidirectional_1/forward_lstm_1/PartitionedCall/while/body/_212/while/mul_2"], "attr": {"element_dtype": {"type": "DT_FLOAT"}, "resize_if_index_out_of_bounds": {"b": false}}, "experimentalType": {"typeId": "TFT_PRODUCT", "args": [{"typeId": "TFT_ARRAY", "args": [{"typeId": "TFT_TENSOR", "args": [{"typeId": "TFT_FLOAT"}]}]}]}}, {"name": "StatefulPartitionedCall/sequential/bidirectional_1/backward_lstm_1/PartitionedCall/while/next_iteration/_324", "op": "NextIteration", "input": ["StatefulPartitionedCall/sequential/bidirectional_1/backward_lstm_1/PartitionedCall/while/body/_272/while/mul_2", "^StatefulPartitionedCall/sequential/bidirectional_1/backward_lstm_1/PartitionedCall/while/loop_body_control/_307"], "attr": {"T": {"type": "DT_FLOAT"}}}, {"name": "StatefulPartitionedCall/sequential/bidirectional_1/backward_lstm_1/PartitionedCall/while/body/_272/while/TensorArrayV2Write/TensorListSetItem", "op": "TensorListSetItem", "input": ["StatefulPartitionedCall/sequential/bidirectional_1/backward_lstm_1/PartitionedCall/while/StatefulPartitionedCall/sequential/bidirectional_1/backward_lstm_1/PartitionedCall/TensorArrayV2_1_switch/_299:1", "StatefulPartitionedCall/sequential/bidirectional_1/backward_lstm_1/PartitionedCall/while/body/_272/while/TensorArrayV2Write/TensorListSetItem/index", "StatefulPartitionedCall/sequential/bidirectional_1/backward_lstm_1/PartitionedCall/while/body/_272/while/mul_2"], "attr": {"element_dtype": {"type": "DT_FLOAT"}, "resize_if_index_out_of_bounds": {"b": false}}, "experimentalType": {"typeId": "TFT_PRODUCT", "args": [{"typeId": "TFT_ARRAY", "args": [{"typeId": "TFT_TENSOR", "args": [{"typeId": "TFT_FLOAT"}]}]}]}}, {"name": "StatefulPartitionedCall/sequential/bidirectional_1/forward_lstm_1/PartitionedCall/while/next_iteration/_263", "op": "NextIteration", "input": ["StatefulPartitionedCall/sequential/bidirectional_1/forward_lstm_1/PartitionedCall/while/body/_212/while/TensorArrayV2Write/TensorListSetItem", "^StatefulPartitionedCall/sequential/bidirectional_1/forward_lstm_1/PartitionedCall/while/loop_body_control/_247"], "attr": {"T": {"type": "DT_VARIANT"}}}, {"name": "StatefulPartitionedCall/sequential/bidirectional_1/backward_lstm_1/PartitionedCall/while/next_iteration/_323", "op": "NextIteration", "input": ["StatefulPartitionedCall/sequential/bidirectional_1/backward_lstm_1/PartitionedCall/while/body/_272/while/TensorArrayV2Write/TensorListSetItem", "^StatefulPartitionedCall/sequential/bidirectional_1/backward_lstm_1/PartitionedCall/while/loop_body_control/_307"], "attr": {"T": {"type": "DT_VARIANT"}}}], "library": {}, "versions": {"producer": 1766}}, "weightsManifest": [{"paths": ["group1-shard1of1.bin"], "weights": [{"name": "StatefulPartitionedCall/sequential/bidirectional_1/forward_lstm_1/PartitionedCall/TensorArrayV2_1/element_shape", "shape": [2], "dtype": "int32"}, {"name": "StatefulPartitionedCall/sequential/bidirectional_1/forward_lstm_1/PartitionedCall/TensorArrayV2_1/num_elements", "shape": [], "dtype": "int32"}, {"name": "StatefulPartitionedCall/sequential/bidirectional_1/forward_lstm_1/zeros_1/packed/1", "shape": [], "dtype": "int32"}, {"name": "StatefulPartitionedCall/sequential/bidirectional_1/forward_lstm_1/zeros_1/Const", "shape": [], "dtype": "float32"}, {"name": "StatefulPartitionedCall/sequential/bidirectional_1/forward_lstm_1/PartitionedCall/TensorArrayUnstack/TensorListFromTensor/element_shape", "shape": [2], "dtype": "int32"}, {"name": "StatefulPartitionedCall/sequential/bidirectional_1/forward_lstm_1/Read/ReadVariableOp", "shape": [128, 512], "dtype": "float32"}, {"name": "StatefulPartitionedCall/sequential/bidirectional_1/forward_lstm_1/strided_slice/stack", "shape": [1], "dtype": "int32"}, {"name": "StatefulPartitionedCall/sequential/bidirectional_1/forward_lstm_1/strided_slice/stack_1", "shape": [1], "dtype": "int32"}, {"name": "StatefulPartitionedCall/sequential/bidirectional_1/forward_lstm_1/strided_slice/stack_2", "shape": [1], "dtype": "int32"}, {"name": "StatefulPartitionedCall/sequential/bidirectional_1/forward_lstm_1/zeros/packed/1", "shape": [], "dtype": "int32"}, {"name": "StatefulPartitionedCall/sequential/bidirectional_1/forward_lstm_1/zeros/Const", "shape": [], "dtype": "float32"}, {"name": "StatefulPartitionedCall/sequential/bidirectional_1/forward_lstm_1/Read_1/ReadVariableOp", "shape": [128, 512], "dtype": "float32"}, {"name": "StatefulPartitionedCall/sequential/bidirectional_1/forward_lstm_1/Read_2/ReadVariableOp", "shape": [512], "dtype": "float32"}, {"name": "StatefulPartitionedCall/sequential/bidirectional_1/forward_lstm_1/PartitionedCall/time", "shape": [], "dtype": "int32"}, {"name": "StatefulPartitionedCall/sequential/bidirectional_1/forward_lstm_1/PartitionedCall/transpose/perm", "shape": [3], "dtype": "int32"}, {"name": "StatefulPartitionedCall/sequential/bidirectional_1/forward_lstm_1/PartitionedCall/strided_slice/stack", "shape": [1], "dtype": "int32"}, {"name": "StatefulPartitionedCall/sequential/bidirectional_1/forward_lstm_1/PartitionedCall/strided_slice/stack_1", "shape": [1], "dtype": "int32"}, {"name": "StatefulPartitionedCall/sequential/bidirectional_1/forward_lstm_1/PartitionedCall/strided_slice/stack_2", "shape": [1], "dtype": "int32"}, {"name": "StatefulPartitionedCall/sequential/bidirectional_1/forward_lstm_1/PartitionedCall/while/loop_counter", "shape": [], "dtype": "int32"}, {"name": "StatefulPartitionedCall/sequential/bidirectional_1/forward_lstm_1/PartitionedCall/TensorArrayV2Stack/TensorListStack/element_shape", "shape": [2], "dtype": "int32"}, {"name": "StatefulPartitionedCall/sequential/bidirectional_1/forward_lstm_1/PartitionedCall/strided_slice_2/stack", "shape": [1], "dtype": "int32"}, {"name": "StatefulPartitionedCall/sequential/bidirectional_1/forward_lstm_1/PartitionedCall/strided_slice_2/stack_1", "shape": [1], "dtype": "int32"}, {"name": "StatefulPartitionedCall/sequential/bidirectional_1/forward_lstm_1/PartitionedCall/strided_slice_2/stack_2", "shape": [1], "dtype": "int32"}, {"name": "StatefulPartitionedCall/sequential/bidirectional_1/backward_lstm_1/PartitionedCall/TensorArrayV2_1/element_shape", "shape": [2], "dtype": "int32"}, {"name": "StatefulPartitionedCall/sequential/bidirectional_1/backward_lstm_1/PartitionedCall/TensorArrayV2_1/num_elements", "shape": [], "dtype": "int32"}, {"name": "StatefulPartitionedCall/sequential/bidirectional_1/backward_lstm_1/zeros_1/packed/1", "shape": [], "dtype": "int32"}, {"name": "StatefulPartitionedCall/sequential/bidirectional_1/backward_lstm_1/zeros_1/Const", "shape": [], "dtype": "float32"}, {"name": "StatefulPartitionedCall/sequential/bidirectional_1/backward_lstm_1/PartitionedCall/ReverseV2/axis", "shape": [1], "dtype": "int32"}, {"name": "StatefulPartitionedCall/sequential/bidirectional_1/backward_lstm_1/PartitionedCall/TensorArrayUnstack/TensorListFromTensor/element_shape", "shape": [2], "dtype": "int32"}, {"name": "StatefulPartitionedCall/sequential/bidirectional_1/backward_lstm_1/Read/ReadVariableOp", "shape": [128, 512], "dtype": "float32"}, {"name": "StatefulPartitionedCall/sequential/bidirectional_1/backward_lstm_1/strided_slice/stack", "shape": [1], "dtype": "int32"}, {"name": "StatefulPartitionedCall/sequential/bidirectional_1/backward_lstm_1/strided_slice/stack_1", "shape": [1], "dtype": "int32"}, {"name": "StatefulPartitionedCall/sequential/bidirectional_1/backward_lstm_1/strided_slice/stack_2", "shape": [1], "dtype": "int32"}, {"name": "StatefulPartitionedCall/sequential/bidirectional_1/backward_lstm_1/zeros/packed/1", "shape": [], "dtype": "int32"}, {"name": "StatefulPartitionedCall/sequential/bidirectional_1/backward_lstm_1/zeros/Const", "shape": [], "dtype": "float32"}, {"name": "StatefulPartitionedCall/sequential/bidirectional_1/backward_lstm_1/Read_1/ReadVariableOp", "shape": [128, 512], "dtype": "float32"}, {"name": "StatefulPartitionedCall/sequential/bidirectional_1/backward_lstm_1/Read_2/ReadVariableOp", "shape": [512], "dtype": "float32"}, {"name": "StatefulPartitionedCall/sequential/bidirectional_1/backward_lstm_1/PartitionedCall/time", "shape": [], "dtype": "int32"}, {"name": "StatefulPartitionedCall/sequential/bidirectional/forward_lstm/PartitionedCall/TensorArrayV2_1/element_shape", "shape": [2], "dtype": "int32"}, {"name": "StatefulPartitionedCall/sequential/bidirectional/forward_lstm/zeros_1/packed/1", "shape": [], "dtype": "int32"}, {"name": "StatefulPartitionedCall/sequential/bidirectional/forward_lstm/zeros_1/Const", "shape": [], "dtype": "float32"}, {"name": "StatefulPartitionedCall/sequential/bidirectional/forward_lstm/PartitionedCall/TensorArrayUnstack/TensorListFromTensor/element_shape", "shape": [2], "dtype": "int32"}, {"name": "StatefulPartitionedCall/sequential/bidirectional/forward_lstm/Read/ReadVariableOp", "shape": [128, 256], "dtype": "float32"}, {"name": "StatefulPartitionedCall/sequential/bidirectional/forward_lstm/strided_slice/stack", "shape": [1], "dtype": "int32"}, {"name": "StatefulPartitionedCall/sequential/bidirectional/forward_lstm/strided_slice/stack_1", "shape": [1], "dtype": "int32"}, {"name": "StatefulPartitionedCall/sequential/bidirectional/forward_lstm/strided_slice/stack_2", "shape": [1], "dtype": "int32"}, {"name": "StatefulPartitionedCall/sequential/bidirectional/forward_lstm/zeros/packed/1", "shape": [], "dtype": "int32"}, {"name": "StatefulPartitionedCall/sequential/bidirectional/forward_lstm/zeros/Const", "shape": [], "dtype": "float32"}, {"name": "StatefulPartitionedCall/sequential/bidirectional/forward_lstm/Read_1/ReadVariableOp", "shape": [64, 256], "dtype": "float32"}, {"name": "StatefulPartitionedCall/sequential/bidirectional/forward_lstm/Read_2/ReadVariableOp", "shape": [256], "dtype": "float32"}, {"name": "StatefulPartitionedCall/sequential/bidirectional/forward_lstm/PartitionedCall/time", "shape": [], "dtype": "int32"}, {"name": "StatefulPartitionedCall/sequential/bidirectional/forward_lstm/PartitionedCall/transpose/perm", "shape": [3], "dtype": "int32"}, {"name": "StatefulPartitionedCall/sequential/bidirectional/forward_lstm/PartitionedCall/strided_slice/stack", "shape": [1], "dtype": "int32"}, {"name": "StatefulPartitionedCall/sequential/bidirectional/forward_lstm/PartitionedCall/strided_slice/stack_1", "shape": [1], "dtype": "int32"}, {"name": "StatefulPartitionedCall/sequential/bidirectional/forward_lstm/PartitionedCall/strided_slice/stack_2", "shape": [1], "dtype": "int32"}, {"name": "StatefulPartitionedCall/sequential/bidirectional/forward_lstm/PartitionedCall/while/loop_counter", "shape": [], "dtype": "int32"}, {"name": "StatefulPartitionedCall/sequential/bidirectional/forward_lstm/PartitionedCall/TensorArrayV2Stack/TensorListStack/element_shape", "shape": [2], "dtype": "int32"}, {"name": "StatefulPartitionedCall/sequential/bidirectional/forward_lstm/PartitionedCall/transpose_1/perm", "shape": [3], "dtype": "int32"}, {"name": "StatefulPartitionedCall/sequential/bidirectional/backward_lstm/PartitionedCall/TensorArrayV2_1/element_shape", "shape": [2], "dtype": "int32"}, {"name": "StatefulPartitionedCall/sequential/bidirectional/backward_lstm/zeros_1/packed/1", "shape": [], "dtype": "int32"}, {"name": "StatefulPartitionedCall/sequential/bidirectional/backward_lstm/zeros_1/Const", "shape": [], "dtype": "float32"}, {"name": "StatefulPartitionedCall/sequential/bidirectional/backward_lstm/PartitionedCall/ReverseV2/axis", "shape": [1], "dtype": "int32"}, {"name": "StatefulPartitionedCall/sequential/bidirectional/backward_lstm/PartitionedCall/TensorArrayUnstack/TensorListFromTensor/element_shape", "shape": [2], "dtype": "int32"}, {"name": "StatefulPartitionedCall/sequential/bidirectional/backward_lstm/Read/ReadVariableOp", "shape": [128, 256], "dtype": "float32"}, {"name": "StatefulPartitionedCall/sequential/bidirectional/backward_lstm/strided_slice/stack", "shape": [1], "dtype": "int32"}, {"name": "StatefulPartitionedCall/sequential/bidirectional/backward_lstm/strided_slice/stack_1", "shape": [1], "dtype": "int32"}, {"name": "StatefulPartitionedCall/sequential/bidirectional/backward_lstm/strided_slice/stack_2", "shape": [1], "dtype": "int32"}, {"name": "StatefulPartitionedCall/sequential/bidirectional/backward_lstm/zeros/packed/1", "shape": [], "dtype": "int32"}, {"name": "StatefulPartitionedCall/sequential/bidirectional/backward_lstm/zeros/Const", "shape": [], "dtype": "float32"}, {"name": "StatefulPartitionedCall/sequential/bidirectional/backward_lstm/Read_1/ReadVariableOp", "shape": [64, 256], "dtype": "float32"}, {"name": "StatefulPartitionedCall/sequential/bidirectional/backward_lstm/Read_2/ReadVariableOp", "shape": [256], "dtype": "float32"}, {"name": "StatefulPartitionedCall/sequential/bidirectional/backward_lstm/PartitionedCall/time", "shape": [], "dtype": "int32"}, {"name": "StatefulPartitionedCall/sequential/conv1d_4/Conv1D/SpaceToBatchND/block_shape", "shape": [1], "dtype": "int32"}, {"name": "StatefulPartitionedCall/sequential/conv1d_4/Conv1D/required_space_to_batch_paddings/strided_slice_2", "shape": [], "dtype": "int32"}, {"name": "StatefulPartitionedCall/sequential/conv1d_4/Conv1D/required_space_to_batch_paddings/strided_slice_1", "shape": [1], "dtype": "int32"}, {"name": "StatefulPartitionedCall/sequential/conv1d_4/Conv1D/required_space_to_batch_paddings/strided_slice_3/stack", "shape": [1], "dtype": "int32"}, {"name": "StatefulPartitionedCall/sequential/conv1d_4/Conv1D/required_space_to_batch_paddings/strided_slice_3/stack_1", "shape": [1], "dtype": "int32"}, {"name": "StatefulPartitionedCall/sequential/conv1d_4/Conv1D/required_space_to_batch_paddings/strided_slice_3/stack_2", "shape": [1], "dtype": "int32"}, {"name": "StatefulPartitionedCall/sequential/conv1d_4/Conv1D/ExpandDims/dim", "shape": [], "dtype": "int32"}, {"name": "StatefulPartitionedCall/sequential/conv1d_4/Conv1D/ExpandDims_1", "shape": [1, 3, 128, 128], "dtype": "float32"}, {"name": "StatefulPartitionedCall/sequential/conv1d_4/Conv1D/BatchToSpaceND/block_shape", "shape": [1], "dtype": "int32"}, {"name": "StatefulPartitionedCall/sequential/conv1d_4/Conv1D/required_space_to_batch_paddings/crops/0/0", "shape": [], "dtype": "int32"}, {"name": "StatefulPartitionedCall/sequential/conv1d_3/Conv1D/SpaceToBatchND/block_shape", "shape": [1], "dtype": "int32"}, {"name": "StatefulPartitionedCall/sequential/conv1d_3/Conv1D/required_space_to_batch_paddings/strided_slice_2", "shape": [], "dtype": "int32"}, {"name": "StatefulPartitionedCall/sequential/conv1d_3/Conv1D/required_space_to_batch_paddings/strided_slice_1", "shape": [1], "dtype": "int32"}, {"name": "StatefulPartitionedCall/sequential/conv1d_3/Conv1D/required_space_to_batch_paddings/strided_slice_3/stack", "shape": [1], "dtype": "int32"}, {"name": "StatefulPartitionedCall/sequential/conv1d_3/Conv1D/required_space_to_batch_paddings/strided_slice_3/stack_1", "shape": [1], "dtype": "int32"}, {"name": "StatefulPartitionedCall/sequential/conv1d_3/Conv1D/required_space_to_batch_paddings/strided_slice_3/stack_2", "shape": [1], "dtype": "int32"}, {"name": "StatefulPartitionedCall/sequential/conv1d_3/Conv1D/ExpandDims/dim", "shape": [], "dtype": "int32"}, {"name": "StatefulPartitionedCall/sequential/conv1d_3/Conv1D/ExpandDims_1", "shape": [1, 3, 64, 128], "dtype": "float32"}, {"name": "StatefulPartitionedCall/sequential/conv1d_3/Conv1D/BatchToSpaceND/block_shape", "shape": [1], "dtype": "int32"}, {"name": "StatefulPartitionedCall/sequential/conv1d_3/Conv1D/required_space_to_batch_paddings/crops/0/0", "shape": [], "dtype": "int32"}, {"name": "StatefulPartitionedCall/sequential/conv1d_1/Conv1D/SpaceToBatchND/block_shape", "shape": [1], "dtype": "int32"}, {"name": "StatefulPartitionedCall/sequential/conv1d_1/Conv1D/required_space_to_batch_paddings/strided_slice_2", "shape": [], "dtype": "int32"}, {"name": "StatefulPartitionedCall/sequential/conv1d_1/Conv1D/required_space_to_batch_paddings/strided_slice_1", "shape": [1], "dtype": "int32"}, {"name": "StatefulPartitionedCall/sequential/conv1d_1/Conv1D/required_space_to_batch_paddings/strided_slice_3/stack", "shape": [1], "dtype": "int32"}, {"name": "StatefulPartitionedCall/sequential/conv1d_1/Conv1D/required_space_to_batch_paddings/strided_slice_3/stack_1", "shape": [1], "dtype": "int32"}, {"name": "StatefulPartitionedCall/sequential/conv1d_1/Conv1D/required_space_to_batch_paddings/strided_slice_3/stack_2", "shape": [1], "dtype": "int32"}, {"name": "StatefulPartitionedCall/sequential/conv1d_1/Conv1D/ExpandDims/dim", "shape": [], "dtype": "int32"}, {"name": "StatefulPartitionedCall/sequential/conv1d_1/Conv1D/ExpandDims_1", "shape": [1, 3, 64, 64], "dtype": "float32"}, {"name": "StatefulPartitionedCall/sequential/conv1d_1/Conv1D/BatchToSpaceND/block_shape", "shape": [1], "dtype": "int32"}, {"name": "StatefulPartitionedCall/sequential/conv1d_1/Conv1D/required_space_to_batch_paddings/crops/0/0", "shape": [], "dtype": "int32"}, {"name": "StatefulPartitionedCall/sequential/conv1d/Conv1D/SpaceToBatchND/block_shape", "shape": [1], "dtype": "int32"}, {"name": "StatefulPartitionedCall/sequential/conv1d/Conv1D/required_space_to_batch_paddings/strided_slice_2", "shape": [], "dtype": "int32"}, {"name": "StatefulPartitionedCall/sequential/conv1d/Conv1D/required_space_to_batch_paddings/strided_slice_1", "shape": [1], "dtype": "int32"}, {"name": "StatefulPartitionedCall/sequential/conv1d/Conv1D/required_space_to_batch_paddings/strided_slice_3/stack", "shape": [1], "dtype": "int32"}, {"name": "StatefulPartitionedCall/sequential/conv1d/Conv1D/required_space_to_batch_paddings/strided_slice_3/stack_1", "shape": [1], "dtype": "int32"}, {"name": "StatefulPartitionedCall/sequential/conv1d/Conv1D/required_space_to_batch_paddings/strided_slice_3/stack_2", "shape": [1], "dtype": "int32"}, {"name": "StatefulPartitionedCall/sequential/conv1d/Conv1D/ExpandDims/dim", "shape": [], "dtype": "int32"}, {"name": "StatefulPartitionedCall/sequential/conv1d/Conv1D/ExpandDims_1", "shape": [1, 3, 32, 64], "dtype": "float32"}, {"name": "StatefulPartitionedCall/sequential/conv1d/Conv1D/BatchToSpaceND/block_shape", "shape": [1], "dtype": "int32"}, {"name": "StatefulPartitionedCall/sequential/conv1d/Conv1D/required_space_to_batch_paddings/crops/0/0", "shape": [], "dtype": "int32"}, {"name": "StatefulPartitionedCall/sequential/conv1d/Conv1D/strided_slice/stack", "shape": [1], "dtype": "int32"}, {"name": "StatefulPartitionedCall/sequential/conv1d/Conv1D/strided_slice/stack_1", "shape": [1], "dtype": "int32"}, {"name": "StatefulPartitionedCall/sequential/conv1d/Conv1D/strided_slice/stack_2", "shape": [1], "dtype": "int32"}, {"name": "StatefulPartitionedCall/sequential/conv1d/Conv1D/required_space_to_batch_paddings/add", "shape": [1], "dtype": "int32"}, {"name": "StatefulPartitionedCall/sequential/conv1d/Conv1D/dilation_rate", "shape": [1], "dtype": "int32"}, {"name": "StatefulPartitionedCall/sequential/conv1d/Conv1D/required_space_to_batch_paddings/strided_slice_4/stack", "shape": [1], "dtype": "int32"}, {"name": "StatefulPartitionedCall/sequential/conv1d/Conv1D/required_space_to_batch_paddings/strided_slice_4/stack_1", "shape": [1], "dtype": "int32"}, {"name": "StatefulPartitionedCall/sequential/conv1d/Conv1D/required_space_to_batch_paddings/strided_slice_4/stack_2", "shape": [1], "dtype": "int32"}, {"name": "StatefulPartitionedCall/sequential/conv1d/BiasAdd/ReadVariableOp", "shape": [64], "dtype": "float32"}, {"name": "StatefulPartitionedCall/sequential/batch_normalization/batchnorm/mul", "shape": [64], "dtype": "float32"}, {"name": "StatefulPartitionedCall/sequential/batch_normalization/batchnorm/sub", "shape": [64], "dtype": "float32"}, {"name": "StatefulPartitionedCall/sequential/conv1d_1/Conv1D/strided_slice/stack", "shape": [1], "dtype": "int32"}, {"name": "StatefulPartitionedCall/sequential/conv1d_1/Conv1D/strided_slice/stack_1", "shape": [1], "dtype": "int32"}, {"name": "StatefulPartitionedCall/sequential/conv1d_1/Conv1D/strided_slice/stack_2", "shape": [1], "dtype": "int32"}, {"name": "StatefulPartitionedCall/sequential/conv1d_1/Conv1D/required_space_to_batch_paddings/add", "shape": [1], "dtype": "int32"}, {"name": "StatefulPartitionedCall/sequential/conv1d_1/Conv1D/dilation_rate", "shape": [1], "dtype": "int32"}, {"name": "StatefulPartitionedCall/sequential/conv1d_1/Conv1D/required_space_to_batch_paddings/strided_slice_4/stack", "shape": [1], "dtype": "int32"}, {"name": "StatefulPartitionedCall/sequential/conv1d_1/Conv1D/required_space_to_batch_paddings/strided_slice_4/stack_1", "shape": [1], "dtype": "int32"}, {"name": "StatefulPartitionedCall/sequential/conv1d_1/Conv1D/required_space_to_batch_paddings/strided_slice_4/stack_2", "shape": [1], "dtype": "int32"}, {"name": "StatefulPartitionedCall/sequential/conv1d_1/BiasAdd/ReadVariableOp", "shape": [64], "dtype": "float32"}, {"name": "StatefulPartitionedCall/sequential/batch_normalization_1/batchnorm/mul", "shape": [64], "dtype": "float32"}, {"name": "StatefulPartitionedCall/sequential/batch_normalization_1/batchnorm/sub", "shape": [64], "dtype": "float32"}, {"name": "StatefulPartitionedCall/sequential/conv1d_2/Conv1D/ExpandDims/dim", "shape": [], "dtype": "int32"}, {"name": "StatefulPartitionedCall/sequential/conv1d_2/Conv1D/ExpandDims_1", "shape": [1, 1, 64, 64], "dtype": "float32"}, {"name": "StatefulPartitionedCall/sequential/conv1d_2/BiasAdd/ReadVariableOp", "shape": [64], "dtype": "float32"}, {"name": "StatefulPartitionedCall/sequential/max_pooling1d/ExpandDims/dim", "shape": [], "dtype": "int32"}, {"name": "StatefulPartitionedCall/sequential/conv1d_3/Conv1D/strided_slice/stack", "shape": [1], "dtype": "int32"}, {"name": "StatefulPartitionedCall/sequential/conv1d_3/Conv1D/strided_slice/stack_1", "shape": [1], "dtype": "int32"}, {"name": "StatefulPartitionedCall/sequential/conv1d_3/Conv1D/strided_slice/stack_2", "shape": [1], "dtype": "int32"}, {"name": "StatefulPartitionedCall/sequential/conv1d_3/Conv1D/required_space_to_batch_paddings/add", "shape": [1], "dtype": "int32"}, {"name": "StatefulPartitionedCall/sequential/conv1d_3/Conv1D/dilation_rate", "shape": [1], "dtype": "int32"}, {"name": "StatefulPartitionedCall/sequential/conv1d_3/Conv1D/required_space_to_batch_paddings/strided_slice_4/stack", "shape": [1], "dtype": "int32"}, {"name": "StatefulPartitionedCall/sequential/conv1d_3/Conv1D/required_space_to_batch_paddings/strided_slice_4/stack_1", "shape": [1], "dtype": "int32"}, {"name": "StatefulPartitionedCall/sequential/conv1d_3/Conv1D/required_space_to_batch_paddings/strided_slice_4/stack_2", "shape": [1], "dtype": "int32"}, {"name": "StatefulPartitionedCall/sequential/conv1d_3/BiasAdd/ReadVariableOp", "shape": [128], "dtype": "float32"}, {"name": "StatefulPartitionedCall/sequential/batch_normalization_2/batchnorm/mul", "shape": [128], "dtype": "float32"}, {"name": "StatefulPartitionedCall/sequential/batch_normalization_2/batchnorm/sub", "shape": [128], "dtype": "float32"}, {"name": "StatefulPartitionedCall/sequential/conv1d_4/Conv1D/strided_slice/stack", "shape": [1], "dtype": "int32"}, {"name": "StatefulPartitionedCall/sequential/conv1d_4/Conv1D/strided_slice/stack_1", "shape": [1], "dtype": "int32"}, {"name": "StatefulPartitionedCall/sequential/conv1d_4/Conv1D/strided_slice/stack_2", "shape": [1], "dtype": "int32"}, {"name": "StatefulPartitionedCall/sequential/conv1d_4/Conv1D/required_space_to_batch_paddings/add", "shape": [1], "dtype": "int32"}, {"name": "StatefulPartitionedCall/sequential/conv1d_4/Conv1D/dilation_rate", "shape": [1], "dtype": "int32"}, {"name": "StatefulPartitionedCall/sequential/conv1d_4/Conv1D/required_space_to_batch_paddings/strided_slice_4/stack", "shape": [1], "dtype": "int32"}, {"name": "StatefulPartitionedCall/sequential/conv1d_4/Conv1D/required_space_to_batch_paddings/strided_slice_4/stack_1", "shape": [1], "dtype": "int32"}, {"name": "StatefulPartitionedCall/sequential/conv1d_4/Conv1D/required_space_to_batch_paddings/strided_slice_4/stack_2", "shape": [1], "dtype": "int32"}, {"name": "StatefulPartitionedCall/sequential/conv1d_4/BiasAdd/ReadVariableOp", "shape": [128], "dtype": "float32"}, {"name": "StatefulPartitionedCall/sequential/batch_normalization_3/batchnorm/mul", "shape": [128], "dtype": "float32"}, {"name": "StatefulPartitionedCall/sequential/batch_normalization_3/batchnorm/sub", "shape": [128], "dtype": "float32"}, {"name": "StatefulPartitionedCall/sequential/conv1d_5/Conv1D/ExpandDims/dim", "shape": [], "dtype": "int32"}, {"name": "StatefulPartitionedCall/sequential/conv1d_5/Conv1D/ExpandDims_1", "shape": [1, 1, 128, 128], "dtype": "float32"}, {"name": "StatefulPartitionedCall/sequential/conv1d_5/BiasAdd/ReadVariableOp", "shape": [128], "dtype": "float32"}, {"name": "StatefulPartitionedCall/sequential/max_pooling1d_1/ExpandDims/dim", "shape": [], "dtype": "int32"}, {"name": "StatefulPartitionedCall/sequential/bidirectional/backward_lstm/PartitionedCall/transpose/perm", "shape": [3], "dtype": "int32"}, {"name": "StatefulPartitionedCall/sequential/bidirectional/backward_lstm/PartitionedCall/strided_slice/stack", "shape": [1], "dtype": "int32"}, {"name": "StatefulPartitionedCall/sequential/bidirectional/backward_lstm/PartitionedCall/strided_slice/stack_1", "shape": [1], "dtype": "int32"}, {"name": "StatefulPartitionedCall/sequential/bidirectional/backward_lstm/PartitionedCall/strided_slice/stack_2", "shape": [1], "dtype": "int32"}, {"name": "StatefulPartitionedCall/sequential/bidirectional/backward_lstm/PartitionedCall/while/loop_counter", "shape": [], "dtype": "int32"}, {"name": "StatefulPartitionedCall/sequential/bidirectional/backward_lstm/PartitionedCall/TensorArrayV2Stack/TensorListStack/element_shape", "shape": [2], "dtype": "int32"}, {"name": "StatefulPartitionedCall/sequential/bidirectional/backward_lstm/PartitionedCall/transpose_1/perm", "shape": [3], "dtype": "int32"}, {"name": "StatefulPartitionedCall/sequential/bidirectional/ReverseV2/axis", "shape": [1], "dtype": "int32"}, {"name": "StatefulPartitionedCall/sequential/bidirectional/concat/axis", "shape": [], "dtype": "int32"}, {"name": "StatefulPartitionedCall/sequential/bidirectional_1/backward_lstm_1/PartitionedCall/transpose/perm", "shape": [3], "dtype": "int32"}, {"name": "StatefulPartitionedCall/sequential/bidirectional_1/backward_lstm_1/PartitionedCall/strided_slice/stack", "shape": [1], "dtype": "int32"}, {"name": "StatefulPartitionedCall/sequential/bidirectional_1/backward_lstm_1/PartitionedCall/strided_slice/stack_1", "shape": [1], "dtype": "int32"}, {"name": "StatefulPartitionedCall/sequential/bidirectional_1/backward_lstm_1/PartitionedCall/strided_slice/stack_2", "shape": [1], "dtype": "int32"}, {"name": "StatefulPartitionedCall/sequential/bidirectional_1/backward_lstm_1/PartitionedCall/while/loop_counter", "shape": [], "dtype": "int32"}, {"name": "StatefulPartitionedCall/sequential/bidirectional_1/backward_lstm_1/PartitionedCall/TensorArrayV2Stack/TensorListStack/element_shape", "shape": [2], "dtype": "int32"}, {"name": "StatefulPartitionedCall/sequential/bidirectional_1/backward_lstm_1/PartitionedCall/strided_slice_2/stack", "shape": [1], "dtype": "int32"}, {"name": "StatefulPartitionedCall/sequential/bidirectional_1/backward_lstm_1/PartitionedCall/strided_slice_2/stack_1", "shape": [1], "dtype": "int32"}, {"name": "StatefulPartitionedCall/sequential/bidirectional_1/backward_lstm_1/PartitionedCall/strided_slice_2/stack_2", "shape": [1], "dtype": "int32"}, {"name": "StatefulPartitionedCall/sequential/bidirectional_1/concat/axis", "shape": [], "dtype": "int32"}, {"name": "StatefulPartitionedCall/sequential/dense/MatMul/ReadVariableOp", "shape": [256, 256], "dtype": "float32"}, {"name": "StatefulPartitionedCall/sequential/dense/BiasAdd/ReadVariableOp", "shape": [256], "dtype": "float32"}, {"name": "StatefulPartitionedCall/sequential/dense_1/MatMul/ReadVariableOp", "shape": [256, 1], "dtype": "float32"}, {"name": "StatefulPartitionedCall/sequential/dense_1/BiasAdd/ReadVariableOp", "shape": [1], "dtype": "float32"}, {"name": "ConstantFolding/StatefulPartitionedCall/sequential/conv1d/Conv1D/stack_1_const_axis", "shape": [], "dtype": "int32"}, {"name": "ConstantFolding/StatefulPartitionedCall/sequential/conv1d/Conv1D/required_space_to_batch_paddings/crops_const_axis", "shape": [], "dtype": "int32"}, {"name": "ConstantFolding/StatefulPartitionedCall/sequential/conv1d/Conv1D/required_space_to_batch_paddings/paddings_const_axis", "shape": [], "dtype": "int32"}, {"name": "ConstantFolding/StatefulPartitionedCall/sequential/conv1d_1/Conv1D/stack_1_const_axis", "shape": [], "dtype": "int32"}, {"name": "ConstantFolding/StatefulPartitionedCall/sequential/conv1d_1/Conv1D/required_space_to_batch_paddings/crops_const_axis", "shape": [], "dtype": "int32"}, {"name": "ConstantFolding/StatefulPartitionedCall/sequential/conv1d_1/Conv1D/required_space_to_batch_paddings/paddings_const_axis", "shape": [], "dtype": "int32"}, {"name": "ConstantFolding/StatefulPartitionedCall/sequential/conv1d_3/Conv1D/stack_1_const_axis", "shape": [], "dtype": "int32"}, {"name": "ConstantFolding/StatefulPartitionedCall/sequential/conv1d_3/Conv1D/required_space_to_batch_paddings/crops_const_axis", "shape": [], "dtype": "int32"}, {"name": "ConstantFolding/StatefulPartitionedCall/sequential/conv1d_3/Conv1D/required_space_to_batch_paddings/paddings_const_axis", "shape": [], "dtype": "int32"}, {"name": "ConstantFolding/StatefulPartitionedCall/sequential/conv1d_4/Conv1D/stack_1_const_axis", "shape": [], "dtype": "int32"}, {"name": "ConstantFolding/StatefulPartitionedCall/sequential/conv1d_4/Conv1D/required_space_to_batch_paddings/crops_const_axis", "shape": [], "dtype": "int32"}, {"name": "ConstantFolding/StatefulPartitionedCall/sequential/conv1d_4/Conv1D/required_space_to_batch_paddings/paddings_const_axis", "shape": [], "dtype": "int32"}, {"name": "StatefulPartitionedCall/sequential/bidirectional/forward_lstm/PartitionedCall/while/body/_92/while/split/split_dim", "shape": [], "dtype": "int32"}, {"name": "StatefulPartitionedCall/sequential/bidirectional/forward_lstm/PartitionedCall/while/body/_92/while/TensorArrayV2Read/TensorListGetItem/element_shape", "shape": [2], "dtype": "int32"}, {"name": "StatefulPartitionedCall/sequential/bidirectional/forward_lstm/PartitionedCall/while/body/_92/while/add_2/y", "shape": [], "dtype": "int32"}, {"name": "StatefulPartitionedCall/sequential/bidirectional/forward_lstm/PartitionedCall/while/body/_92/while/add_3/y", "shape": [], "dtype": "int32"}, {"name": "StatefulPartitionedCall/sequential/bidirectional/backward_lstm/PartitionedCall/while/body/_152/while/split/split_dim", "shape": [], "dtype": "int32"}, {"name": "StatefulPartitionedCall/sequential/bidirectional/backward_lstm/PartitionedCall/while/body/_152/while/TensorArrayV2Read/TensorListGetItem/element_shape", "shape": [2], "dtype": "int32"}, {"name": "StatefulPartitionedCall/sequential/bidirectional/backward_lstm/PartitionedCall/while/body/_152/while/add_2/y", "shape": [], "dtype": "int32"}, {"name": "StatefulPartitionedCall/sequential/bidirectional/backward_lstm/PartitionedCall/while/body/_152/while/add_3/y", "shape": [], "dtype": "int32"}, {"name": "StatefulPartitionedCall/sequential/bidirectional_1/forward_lstm_1/PartitionedCall/while/body/_212/while/TensorArrayV2Write/TensorListSetItem/index", "shape": [], "dtype": "int32"}, {"name": "StatefulPartitionedCall/sequential/bidirectional_1/forward_lstm_1/PartitionedCall/while/body/_212/while/split/split_dim", "shape": [], "dtype": "int32"}, {"name": "StatefulPartitionedCall/sequential/bidirectional_1/forward_lstm_1/PartitionedCall/while/body/_212/while/TensorArrayV2Read/TensorListGetItem/element_shape", "shape": [2], "dtype": "int32"}, {"name": "StatefulPartitionedCall/sequential/bidirectional_1/forward_lstm_1/PartitionedCall/while/body/_212/while/add_2/y", "shape": [], "dtype": "int32"}, {"name": "StatefulPartitionedCall/sequential/bidirectional_1/forward_lstm_1/PartitionedCall/while/body/_212/while/add_3/y", "shape": [], "dtype": "int32"}, {"name": "StatefulPartitionedCall/sequential/bidirectional_1/backward_lstm_1/PartitionedCall/while/body/_272/while/TensorArrayV2Write/TensorListSetItem/index", "shape": [], "dtype": "int32"}, {"name": "StatefulPartitionedCall/sequential/bidirectional_1/backward_lstm_1/PartitionedCall/while/body/_272/while/split/split_dim", "shape": [], "dtype": "int32"}, {"name": "StatefulPartitionedCall/sequential/bidirectional_1/backward_lstm_1/PartitionedCall/while/body/_272/while/TensorArrayV2Read/TensorListGetItem/element_shape", "shape": [2], "dtype": "int32"}, {"name": "StatefulPartitionedCall/sequential/bidirectional_1/backward_lstm_1/PartitionedCall/while/body/_272/while/add_2/y", "shape": [], "dtype": "int32"}, {"name": "StatefulPartitionedCall/sequential/bidirectional_1/backward_lstm_1/PartitionedCall/while/body/_272/while/add_3/y", "shape": [], "dtype": "int32"}]}]}